Zero-DCE_code/snapshots/Epoch99.pth (torch, 321787 bytes, 14 tensors)

e_conv1.weight f4 [32, 3, 3, 3]
0	0xbd9f6ed1	-0.077848084
1	0xbaa4ebb2	-0.001258245
2	0xbd39b1e2	-0.045335658
3	0xbd359ae5	-0.044337172
4	0xbba088d7	-0.004899125
5	0xbbbf2b5a	-0.0058340253
6	0xbd9da83e	-0.07698105
7	0xbccc4cbc	-0.024938934
8	0x3ccca606	0.02498151
9	0xbd6b2146	-0.05740478
10	0x3b4a4afd	0.003086745
11	0xbd36f16e	-0.04466384
12	0xbb915b18	-0.004435908
13	0xbba7d00d	-0.005121237
14	0xbc2938d1	-0.0103284875
15	0xbcbf10ed	-0.0233235
16	0x3cb3a81b	0.021930745
17	0x3d175f3e	0.036956064
18	0xbd462a87	-0.0483804
19	0xbcd9d825	-0.026592324
20	0xbcfc2f0b	-0.03078415
21	0xbcc422fb	-0.023942461
22	0xbcab3bc1	-0.020902516
23	0xbcd5912c	-0.0260702
24	0xbd2ba33e	-0.041903727
25	0xbc88534c	-0.016641282
26	0xbbdfac0f	-0.006825931
27	0xbdb6fc03	-0.08934786
28	0xbd35f8c6	-0.044426702
29	0xbdbbad00	-0.091638565
30	0xbd81fe6e	-0.06347357
31	0xbd43c375	-0.047793824
32	0xbcb58eee	-0.02216288
33	0xbdad7730	-0.08469999
34	0xbd45d732	-0.04830093
35	0xbd9a48b9	-0.07533402
36	0xbd353284	-0.04423763
37	0x3c045155	0.008076032
38	0xbc90bd0a	-0.017668266
39	0xba6e3cd9	-0.00090880465
40	0x3c4dcbcd	0.012560797
41	0xbcac0dd9	-0.021002697
42	0xbd6ad884	-0.05733539
43	0xbbe2f67c	-0.006926356
44	0xbd0b22af	-0.033968624
45	0xbd3c3384	-0.045947567
46	0xbcd3ea27	-0.025868488
47	0xbd54a753	-0.051917385
48	0xbcfcb1aa	-0.030846436
49	0xbcad7303	-0.021173006
50	0xbc75c053	-0.014999467
51	0xbd61c2e6	-0.05511751
52	0xbc9e144d	-0.01929679
53	0xbcfa24a4	-0.03053505
54	0xba190beb	-0.0005838263
55	0xba1c355f	-0.00059588806
56	0xba12ccd6	-0.0005599981
57	0xba1e7ac9	-0.0006045518
58	0xba235bb9	-0.0006231624
59	0xba17b15b	-0.0005786621
60	0xba19d352	-0.0005867976
61	0xba1e3f02	-0.00060366106
62	0xba135e91	-0.00056216965
63	0xba28c4a5	-0.0006437994
64	0xba2ed63b	-0.0006669496
65	0xba27c001	-0.0006399155
66	0xba31ae7c	-0.00067780144
67	0xba397650	-0.000707482
68	0xba2feb66	-0.00067107973
69	0xba2ee9a0	-0.0006672386
70	0xba35e831	-0.0006939201
71	0xba2d4997	-0.0006610392
72	0xba029907	-0.00049819093
73	0xba0b4fab	-0.00053143007
74	0xba0668d5	-0.00051273155
75	0xba09371c	-0.0005234347
76	0xba12fcb2	-0.00056071125
77	0xba0b5765	-0.0005315452
78	0xba04a46f	-0.0005059903
79	0xba0d02ad	-0.0005379122
80	0xba05e77b	-0.00051080406
81	0xb66de42f	-3.5448572e-06
82	0xb65b2a82	-3.2658286e-06
83	0xb63e10a5	-2.8321895e-06
84	0xb679632b	-3.7161615e-06
85	0xb661dbdd	-3.365559e-06
86	0xb647a139	-2.9747155e-06
87	0xb696cd20	-4.494228e-06
88	0xb6887466	-4.0666664e-06
89	0xb67015be	-3.5775442e-06
90	0xb745c0ee	-1.1787035e-05
91	0xb73e55d4	-1.1344866e-05
92	0xb72d2f09	-1.0322555e-05
93	0xb7463cb9	-1.1815858e-05
94	0xb73c5459	-1.1225312e-05
95	0xb72d6dce	-1.0337169e-05
96	0xb75a301c	-1.3005014e-05
97	0xb74ee322	-1.233144e-05
98	0xb73e271d	-1.1333989e-05
99	0xb8797e1f	-5.9483686e-05
100	0xb87c5e52	-6.0169325e-05
101	0xb872afb5	-5.7860936e-05
102	0xb8751b40	-5.843793e-05
103	0xb875abf8	-5.857271e-05
104	0xb86d405f	-5.6565153e-05
105	0xb87ce5cb	-6.0295493e-05
106	0xb87c5ad3	-6.016607e-05
107	0xb8726fc2	-5.780138e-05
108	0x3d8ba14d	0.06817875
109	0x3c2f0691	0.010682718
110	0x3d57e1b6	0.05270549
111	0x3cd58cbf	0.02606809
112	0xbc82ac48	-0.01595129
113	0x3bc9a528	0.0061537214
114	0x3c998b61	0.018743219
115	0x3c144564	0.009049747
116	0x3cae6593	0.021288669
117	0x3d3327c3	0.04373909
118	0x3be7b9cc	0.0070717093
119	0x3c3548e1	0.011064739
120	0xbc185e25	-0.00929979
121	0xbd13b241	-0.036058668
122	0xbd182c06	-0.03715136
123	0xbba42b68	-0.0050100572
124	0xbd44de95	-0.048063833
125	0xbd16338a	-0.036670245
126	0x3d033148	0.03202942
127	0x3b97887f	0.004624426
128	0x3cebb400	0.028772354
129	0xbabdaeb1	-0.0014471618
130	0x3b1465a1	0.0022643583
131	0x3cba8a40	0.022771
132	0x39f59eee	0.00046848453
133	0xbbd2c9fd	-0.0064327703
134	0xbb452d41	-0.0030086788
135	0xb78e1cf7	-1.6941207e-05
136	0xb773d761	-1.45340755e-05
137	0xb79f3e00	-1.8983148e-05
138	0xb771e767	-1.4418597e-05
139	0xb74c5397	-1.217881e-05
140	0xb787a85d	-1.6171654e-05
141	0xb783d9e2	-1.5717877e-05
142	0xb76d1c75	-1.41329265e-05
143	0xb798b56a	-1.820429e-05
144	0xb7702d94	-1.4315727e-05
145	0xb7504451	-1.2413672e-05
146	0xb7858855	-1.591832e-05
147	0xb749a59a	-1.2019091e-05
148	0xb728884b	-1.00453135e-05
149	0xb75e800c	-1.3262044e-05
150	0xb75ab1ea	-1.3035236e-05
151	0xb73fcc64	-1.1432076e-05
152	0xb7773fee	-1.4737232e-05
153	0xb5ce9d6b	-1.5394011e-06
154	0xb5b3e86d	-1.3404184e-06
155	0xb608fe82	-2.0413722e-06
156	0xb59fdcc7	-1.1910678e-06
157	0xb57b9c34	-9.373209e-07
158	0xb5ca1947	-1.505753e-06
159	0xb5c14029	-1.4398294e-06
160	0xb5a00340	-1.1921875e-06
161	0xb5f03fc0	-1.7899947e-06
162	0x80006f05	-3.9826e-41
163	0x800079c1	-4.3677e-41
164	0x80008e2f	-5.1006e-41
165	0x80006cf2	-3.9082e-41
166	0x80000cfc	-4.658e-42
167	0x8000587c	-3.1742e-41
168	0x800077ba	-4.295e-41
169	0x8000b8a3	-6.6235e-41
170	0x0000445c	2.4523e-41
171	0x80001fc2	-1.1393e-41
172	0x8000033c	-1.16e-42
173	0x800099fe	-5.5242e-41
174	0x00004cf9	2.7613e-41
175	0x0000699d	3.7887e-41
176	0x8000bba9	-6.732e-41
177	0x80004fc7	-2.8619e-41
178	0x80004bcd	-2.7192e-41
179	0x0000443d	2.4479e-41
180	0x00003395	1.8504e-41
181	0x000006f6	2.497e-42
182	0x00007c20	4.4528e-41
183	0x80003875	-2.0253e-41
184	0x800011bc	-6.362e-42
185	0x0000192d	9.031e-42
186	0x00009702	5.4171e-41
187	0x0000be7c	6.8333e-41
188	0x80008c4e	-5.0332e-41
189	0xb9ee2025	-0.00045418847
190	0xb9fa54a0	-0.00047746766
191	0xb9f08196	-0.00045872916
192	0xb9da3eb7	-0.00041626926
193	0xb9e114b5	-0.00042930772
194	0xb9d2acf3	-0.00040183178
195	0xb9d90640	-0.00041394122
196	0xb9db31fd	-0.0004180818
197	0xb9c8b8d5	-0.00038284683
198	0xba282d97	-0.0006415485
199	0xba2e72f6	-0.0006654704
200	0xba276b9d	-0.000638658
201	0xba1c71d0	-0.0005967887
202	0xba1fda9a	-0.0006097943
203	0xba1628b4	-0.0005728111
204	0xba1a4753	-0.0005885262
205	0xba1b41db	-0.0005922594
206	0xba0f44cb	-0.0005465268
207	0xba3fa5a1	-0.00073107524
208	0xba461911	-0.0007556836
209	0xba3d2eb1	-0.00072167354
210	0xba35180b	-0.0006908185
211	0xba386cf0	-0.0007035276
212	0xba2cc788	-0.0006591012
213	0xba313ae4	-0.00067607895
214	0xba31dad8	-0.00067846244
215	0xba23e923	-0.00062526966
216	0xbc9f6d3b	-0.019461265
217	0x3c4b8474	0.012421716
218	0xbce7feb4	-0.028319694
219	0xbc0b8622	-0.0085158665
220	0x3b380c7b	0.002808361
221	0xbcc88a79	-0.024480091
222	0xbbbdc0a4	-0.005790787
223	0x3c696f39	0.014247709
224	0xba9de107	-0.0012045213
225	0xbc9eeedd	-0.019401008
226	0xbaa0847b	-0.0012246514
227	0xbc99bfd8	-0.018768236
228	0x3cc0c1e0	0.023529947
229	0x3bcb2460	0.0061994046
230	0xbc02ce06	-0.00798369
231	0xbce7ca84	-0.02829481
232	0x3ba272e4	0.0049575437
233	0x3cbf8d32	0.023382757
234	0xbcbe5554	-0.023234047
235	0xbccbf6d2	-0.024897967
236	0xbc948fc1	-0.018134953
237	0xbd461887	-0.048363235
238	0xbcfad885	-0.030620823
239	0xbce1aacd	-0.027547264
240	0xbcfec812	-0.03110126
241	0xbc5d0421	-0.013489754
242	0xbd180b15	-0.037119944
243	0x3cef4c31	0.029211136
244	0x3d5b5b87	0.053554084
245	0x3cbabe95	0.022795955
246	0x3bc1071f	0.0058907415
247	0xbc4d2455	-0.012520869
248	0x3cb1cab3	0.0217031
249	0xbd86158d	-0.06547079
250	0xbd0e8419	-0.034793947
251	0xbd790697	-0.0607973
252	0x3d278891	0.040901724
253	0x3d4052c8	0.046953946
254	0x3c766ac2	0.0150401015
255	0xbc212f8d	-0.009837997

e_conv1.bias f4 [32]
0	0x3d99dabe	0.07512425
1	0x3d9a8efa	0.07546802
2	0xbb255ebd	-0.002523347
3	0xb90be4d1	-0.00013341314
4	0x3dc7657d	0.09736154
5	0xb9a11db4	-0.00030730444
6	0x8d396144	-5.7124606e-31
7	0xba8aa3fa	-0.0010577433
8	0x3e129215	0.14313538
9	0x3d6ca4f7	0.05777451
10	0xbdba116f	-0.090853564
11	0x3d813dda	0.063106254
12	0xb747bd67	-1.1905423e-05
13	0x3cfb0b70	0.030645102
14	0x3e31f632	0.17379072
15	0xa1c9293f	-1.3631208e-18
16	0xa076fa75	-2.091988e-19
17	0x3d6df795	0.05809744
18	0x3e0c1a93	0.13682012
19	0xbb883653	-0.0041568666
20	0x3bde11d1	0.006777026
21	0x3e3dbcca	0.18529049
22	0xb7a8b9de	-2.0113712e-05
23	0xa8e6e6b5	-2.5635183e-14
24	0xb7ef5f15	-2.8535296e-05
25	0x3ccf4424	0.025301047
26	0xbb8bf0bd	-0.0042706416
27	0x3e46bd76	0.19408211
28	0x3d0a9cb1	0.03384084
29	0x3e28ea2e	0.16495582
30	0xb7480f2b	-1.19244605e-05
31	0xbb5b8d43	-0.0033500947

e_conv2.weight f4 [32, 32, 3, 3]
0	0x3d0ede8e	0.034880213
1	0x3c95c2d9	0.018281387
2	0x3ce25c25	0.027631829
3	0x3ca9bbe1	0.02071947
4	0x3b81cfed	0.0039615543
5	0x3c013d3e	0.007888136
6	0x3cde7a01	0.027157785
7	0x3b92b13d	0.004476695
8	0x3b9270c5	0.0044690096
9	0x3d01a121	0.031647805
10	0x3ca802e4	0.02050919
11	0x3d220d2c	0.039563343
12	0x3c5a8ee3	0.013339731
13	0x3b2c9992	0.0026336652
14	0x3c96dd19	0.018415974
15	0x3cd9853d	0.02655279
16	0x3c6a37ae	0.014295502
17	0x3ce6390a	0.02810337
18	0x3117a9a3	2.206982e-09
19	0x3112fcdb	2.1389528e-09
20	0x312fb209	2.5567053e-09
21	0x30d9f366	1.5858006e-09
22	0x30dea550	1.619961e-09
23	0x310f7490	2.0875497e-09
24	0x307e12a4	9.243115e-10
25	0x308c7062	1.0218282e-09
26	0x30be3e6a	1.3842059e-09
27	0x1c94b28c	9.839972e-22
28	0x1c2a8567	5.64207e-22
29	0x1bac15e9	2.8469172e-22
30	0x1de36a11	6.019607e-21
31	0x1d97fc75	4.02304e-21
32	0x1d36dbb1	2.4201077e-21
33	0x1e9e7f9c	1.6781679e-20
34	0x1e680091	1.2282095e-20
35	0x1e142838	7.843372e-21
36	0x3b993f95	0.004676769
37	0x3c40dc85	0.011771326
38	0x3cc03eff	0.023467539
39	0x3c1f90dc	0.009739127
40	0x3bcb84ac	0.006210884
41	0xbc445818	-0.011983894
42	0xbacd12a7	-0.0015645818
43	0x3c0b1a2b	0.008490126
44	0x3cdba551	0.026812227
45	0x00005cda	3.3309e-41
46	0x000066c9	3.6872e-41
47	0x00005028	2.8755e-41
48	0x8000aa4a	-6.1088e-41
49	0x8000f25d	-8.6944e-41
50	0x000063f6	3.5859e-41
51	0x00000716	2.542e-42
52	0x8000d74a	-7.7231e-41
53	0x00007a1c	4.3805e-41
54	0x00004481	2.4575e-41
55	0x00007ca4	4.4713e-41
56	0x0000cd7b	7.3713e-41
57	0x80004ebe	-2.8247e-41
58	0x00010c8d	9.6338e-41
59	0x000138a6	1.12157e-40
60	0x000044f4	2.4736e-41
61	0x00010539	9.3709e-41
62	0x0000a70a	5.9922e-41
63	0xb24cd226	-1.1922145e-08
64	0xb2840447	-1.5368768e-08
65	0xb24ee993	-1.2043887e-08
66	0xb299097f	-1.7815863e-08
67	0xb2c45940	-2.285799e-08
68	0xb29d014c	-1.8277795e-08
69	0xb297efd9	-1.7687784e-08
70	0xb2c07368	-2.2404222e-08
71	0xb29e6ca9	-1.8443034e-08
72	0x3d088c0c	0.033336684
73	0x3d11cd03	0.035595905
74	0x3cadc3de	0.02121156
75	0x3cad2da2	0.021139923
76	0xbc8662e3	-0.016404575
77	0x3c1db1a5	0.009624873
78	0x3cea5fe5	0.02861018
79	0x3a901bd6	0.0010994624
80	0x3b5bec70	0.0033557676
81	0x3c660ca9	0.014041104
82	0x3b0a337f	0.0021087823
83	0xbbcb6e3a	-0.0062082084
84	0x3cc8e1d7	0.024521751
85	0x3c2eb5b8	0.010663442
86	0x3c889c54	0.016676106
87	0x3d5f5c44	0.05453135
88	0x3cbaf603	0.022822386
89	0x3ceb0b25	0.028691838
90	0x3b676bf6	0.0035312152
91	0x3c7a8650	0.015290812
92	0x3c156083	0.0091172485
93	0xbb1690ce	-0.0022974494
94	0x3c6eb60d	0.0145697715
95	0x3b631337	0.0034648904
96	0x3bb6e3ce	0.0055813557
97	0x3ca89b41	0.020581843
98	0x3c2442e9	0.010025718
99	0x3c71abc2	0.014750423
100	0x3c0f693e	0.008753119
101	0x3bf6ed25	0.007535594
102	0xbabaa9ce	-0.001424128
103	0x3a899ca7	0.0010498957
104	0x3b6e62b6	0.0036374754
105	0xbc2a9e6e	-0.010413749
106	0xbb672ce3	-0.0035274557
107	0xb81181c4	-3.4691548e-05
108	0x0585abd7	1.2570384e-35
109	0x05b94109	1.7421207e-35
110	0x05be5518	1.7898773e-35
111	0x85163162	-7.062036e-36
112	0x0655a491	4.0181752e-35
113	0x064d1290	3.8569852e-35
114	0x057ebad6	1.1977339e-35
115	0x8657de53	-4.0600344e-35
116	0x864e7237	-3.8828206e-35
117	0x3d34ac14	0.04410942
118	0x3c2d4d28	0.0105774775
119	0xbd07ef1d	-0.03318702
120	0x3ce4ec76	0.027944785
121	0x3c0985b7	0.0083936965
122	0xbcdb8aea	-0.026799638
123	0x3d2093fb	0.039203625
124	0xb995243b	-0.00028446488
125	0xbd5d55e1	-0.05403698
126	0xbc6d6ca9	-0.014491239
127	0xbc9b4944	-0.018955834
128	0xbb106006	-0.002202989
129	0xbc6050ea	-0.013691166
130	0xbcdf1264	-0.027230449
131	0x3c0f2ce5	0.008738731
132	0xbc15a6cd	-0.009134007
133	0xbc708cad	-0.014681977
134	0xbd513d0f	-0.05108362
135	0x80001a32	-9.397e-42
136	0x8000806b	-4.6068e-41
137	0x8000e343	-8.1526e-41
138	0x0000a128	5.7812e-41
139	0x00004d55	2.7742e-41
140	0x0000cabd	7.2729e-41
141	0x00005029	2.8756e-41
142	0x000087c2	4.8701e-41
143	0x0000e08a	8.055e-41
144	0x80008092	-4.6122e-41
145	0x8000a1b5	-5.801e-41
146	0x8000d385	-7.5879e-41
147	0x0000598a	3.212e-41
148	0x800014c2	-7.447e-42
149	0x8000dde0	-7.9594e-41
150	0x00005875	3.1732e-41
151	0x00002d30	1.621e-41
152	0x80001405	-7.182e-42
153	0xbb9a0de0	-0.004701361
154	0xbb4cd156	-0.0031252704
155	0xbcd548d6	-0.026035707
156	0x3d052df1	0.032514516
157	0x3c1c9638	0.009557299
158	0xbb869fc5	-0.0041084015
159	0x3ced14c7	0.028940571
160	0xbc1e2d3c	-0.009654339
161	0xbc05384a	-0.008131096
162	0x3cbfb3f7	0.023401244
163	0x3cc48814	0.023990668
164	0x3cf7bccb	0.03024139
165	0xbc1a93b2	-0.009434627
166	0x3d0e7937	0.03478357
167	0x3c0b1aa2	0.0084902365
168	0xbb8b9e82	-0.004260839
169	0x3aadd7a9	0.0013263124
170	0xbcc28ea3	-0.023749655
171	0x3a3cfcdc	0.000720931
172	0x3a4abbbb	0.00077336625
173	0x3a6944b7	0.0008898484
174	0x3a30a693	0.00067386887
175	0x3a404485	0.0007334429
176	0x3a658378	0.0008755247
177	0x3a3f74ef	0.0007303496
178	0x3a579de1	0.0008225125
179	0x3a78c324	0.00094895274
180	0x3b35d2a3	0.0027743957
181	0x3ae8230f	0.0017710644
182	0x3ac7653c	0.0015212665
183	0xbc857aa2	-0.016293827
184	0xbc816755	-0.015796343
185	0xbc6b50b8	-0.014362507
186	0xbd124e8e	-0.035719447
187	0xbd0dc8c9	-0.03461531
188	0xbd0e2fe3	-0.034713637
189	0xbcb1acde	-0.021688875
190	0xbb9d3b3c	-0.004798321
191	0xbcbac56f	-0.022799222
192	0x3c05080e	0.008119596
193	0x3c570cc1	0.013125599
194	0xba82aa40	-0.0009968951
195	0xbd02302f	-0.031784233
196	0xbd25ab1c	-0.040446386
197	0xbc91249c	-0.017717652
198	0x00009a94	5.5452e-41
199	0x0000c90b	7.212e-41
200	0x80009fda	-5.7344e-41
201	0x0000a422	5.888e-41
202	0x80001281	-6.638e-42
203	0x80000db0	-4.91e-42
204	0x00005b6e	3.2799e-41
205	0x0000783f	4.3136e-41
206	0x800086b9	-4.833e-41
207	0x00007ce4	4.4802e-41
208	0x80000bc9	-4.228e-42
209	0x8000c0f1	-6.9214e-41
210	0x8000d62f	-7.6835e-41
211	0x00007c0d	4.4501e-41
212	0x0000e467	8.1935e-41
213	0x00012735	1.059e-40
214	0x00007fad	4.5801e-41
215	0x0000b4b7	6.4828e-41
216	0x825658af	-1.5747688e-37
217	0x01c1859f	7.108874e-38
218	0x820347d5	-9.644975e-38
219	0x828bd40f	-2.054593e-37
220	0x80ee6c64	-2.1895731e-38
221	0x823f6385	-1.4061025e-37
222	0x8076f55d	-1.0924608e-38
223	0x82890d6e	-2.013805e-37
224	0x825d1058	-1.6241206e-37
225	0x3b6f6c4b	0.0036533053
226	0x3b1598c7	0.0022826658
227	0x3bf4b2c2	0.0074675987
228	0x38736974	5.8033926e-05
229	0xbaf42c12	-0.0018628857
230	0x3b447c77	0.0029981413
231	0x3b6dbadf	0.0036274714
232	0x3a9c47a9	0.0011923212
233	0x3bb71a47	0.0055878493
234	0x3c064934	0.008196164
235	0x3cb3a208	0.021927848
236	0xbc95e733	-0.018298721
237	0x3ba0083c	0.004883794
238	0x3c976b49	0.018483775
239	0x3b9cd3ed	0.0047860057
240	0xbd298ed2	-0.04139597
241	0xbcfafc24	-0.030637808
242	0xbc2c3c8c	-0.010512482
243	0x3d29a95b	0.041421276
244	0x3ca71d96	0.02039985
245	0x3b85232e	0.0040630316
246	0x3bbf9059	0.005846065
247	0x3cdec45b	0.027193239
248	0xbbe64956	-0.0070277853
249	0x3ce96a22	0.02849299
250	0x3c8b5ca5	0.01701195
251	0xbcc4d523	-0.024027413
252	0xbc66083c	-0.014040049
253	0xbcc4b17d	-0.024010414
254	0xbd4ba620	-0.049718976
255	0x3c82d186	0.01596905

e_conv2.bias f4 [32]
0	0x3c9e6e79	0.019339787
1	0x906a1704	-4.6166094e-29
2	0xb80b5bfe	-3.3225857e-05
3	0xbd01c388	-0.031680614
4	0x3ab36257	0.0013685924
5	0x3b20b97d	0.0024524622
6	0xbbbaf0c9	-0.0057049734
7	0xbca049d1	-0.019566448
8	0x3cacc012	0.02108768
9	0x3cdbf6f6	0.026851159
10	0x3d5a5289	0.053301368
11	0xbb3cc7cf	-0.0028805619
12	0xb4b321e8	-3.3366018e-07
13	0x3c0cb45f	0.008587926
14	0xb890a8cd	-6.897897e-05
15	0x96afb7c6	-2.8388752e-25
16	0x3d0792b8	0.033098906
17	0xbcca184a	-0.024669785
18	0xbc9d8d33	-0.019232368
19	0x3c5cbd12	0.013472812
20	0x3d15e45d	0.036594737
21	0x3c6afb95	0.014342208
22	0x3cd89ec6	0.026442897
23	0xbaa1dc96	-0.0012349065
24	0xba7bf940	-0.0009612031
25	0xb68c576a	-4.1825015e-06
26	0x3d10ecf6	0.035382234
27	0x3d31253b	0.043248396
28	0x3bae366d	0.0053165467
29	0x3bc5ee19	0.0060403463
30	0x3cbb8e2b	0.02289494
31	0xbc53638c	-0.012902152

e_conv3.weight f4 [32, 32, 3, 3]
0	0x3ccd5454	0.025064625
1	0x3c46e7fc	0.01214027
2	0x3d271841	0.040794615
3	0x3b9f0569	0.00485294
4	0x3bb6316a	0.00556009
5	0x3c509626	0.012731111
6	0xbb90f033	-0.004423165
7	0x3a072918	0.0005155965
8	0xbc1f921d	-0.009739426
9	0x800120af	-1.0356e-40
10	0x0001146e	9.9164e-41
11	0x00013c50	1.13472e-40
12	0x0000bdf2	6.814e-41
13	0x0000013b	4.41e-43
14	0x800103e8	-9.3237e-41
15	0x0000f250	8.6925e-41
16	0x8000c2d6	-6.9894e-41
17	0x00010e1a	9.6894e-41
18	0x1eed13a0	2.5101468e-20
19	0x9eb0b9c5	-1.8711557e-20
20	0x1e9c1c21	1.6528776e-20
21	0x9d48e081	-2.6585845e-21
22	0x1dbb70fd	4.9615315e-21
23	0x1de0c2a0	5.9493544e-21
24	0x1e6bce7c	1.2483496e-20
25	0x9db64da2	-4.825527e-21
26	0x9ce6207e	-1.5228522e-21
27	0x3d56aeda	0.052412845
28	0x3c81eec5	0.015860924
29	0x3c2b84fd	0.010468719
30	0x3c42610d	0.011863959
31	0xbba2829f	-0.004959419
32	0xbc1b23d8	-0.009468995
33	0xbb657fed	-0.0035018877
34	0xbc7740e1	-0.015091152
35	0xbcfb522e	-0.030678835
36	0x3d7765da	0.060399868
37	0x3d0e9309	0.034808192
38	0x3d68241b	0.056675058
39	0x3c30c75e	0.01078972
40	0xbab398bd	-0.0013702136
41	0xbb4350d1	-0.002980281
42	0xbcd95edd	-0.026534492
43	0xbd0b8780	-0.03406477
44	0xbd79be16	-0.060972296
45	0x3d95282e	0.07283054
46	0x3ccda3b5	0.025102476
47	0x3abadcfb	0.0014256531
48	0x3cff7c77	0.03118728
49	0x3b4171b4	0.0029517235
50	0xbc0473a2	-0.00808421
51	0xbc23c09d	-0.009994653
52	0xbcd5bae0	-0.026090086
53	0xbcb5af66	-0.022178363
54	0x3dc1bc06	0.09459691
55	0x3c8021bc	0.015641086
56	0xbc798bea	-0.015231112
57	0x3d137c39	0.03600714
58	0xbc161ebf	-0.009162604
59	0xbbb73f0d	-0.005592233
60	0xbc3409ee	-0.010988696
61	0xbccf36d7	-0.025294704
62	0xbb5ce343	-0.0033704794
63	0xbe46901e	-0.19390914
64	0xbdc682b9	-0.09692902
65	0xbe1841b4	-0.14868814
66	0xbc21f922	-0.009886058
67	0x3d07c6ca	0.033148564
68	0xbbed0183	-0.007232846
69	0xbc8951b2	-0.016762588
70	0xbc0b5de2	-0.00850627
71	0xbd57eec5	-0.052717943
72	0x3cc62210	0.024186164
73	0x3c9470f8	0.018120274
74	0x3d2967cd	0.041358758
75	0x3c4b753c	0.012418088
76	0x3ad87ac1	0.0016516076
77	0xba33ea72	-0.0006863243
78	0xbb43498b	-0.0029798474
79	0xbcb64aec	-0.022252522
80	0xbd40932f	-0.047015365
81	0x3d2611a9	0.040544186
82	0x3c6027f5	0.0136814015
83	0x3ce61942	0.028088216
84	0x3c9c40cc	0.019073866
85	0x3b029a59	0.0019928424
86	0x3bc60c1d	0.0060439245
87	0xbaea3cb1	-0.0017870871
88	0xbbc11d18	-0.005893361
89	0xbbdfbec7	-0.0068281624
90	0x3d0f08a8	0.034920365
91	0x3d0dc05c	0.034607276
92	0x3da7da5e	0.08195947
93	0x3c8c453e	0.017122861
94	0x3ca0d500	0.019632816
95	0x3ccf0d44	0.02527488
96	0xbb9afc7d	-0.004729806
97	0xbc2688bb	-0.010164435
98	0xbd331d00	-0.04372883
99	0x06892eb1	5.160228e-35
100	0x0692ba76	5.5193076e-35
101	0x0641ea01	3.6471184e-35
102	0x8948e0af	-2.417977e-33
103	0x09c66714	4.77637e-33
104	0x882847bf	-5.064e-34
105	0x0be74340	8.907915e-32
106	0x0c8dcb85	2.1846979e-31
107	0x8b473f65	-3.83737e-32
108	0x8000ecfe	-8.5017e-41
109	0x0000149e	7.396e-42
110	0x00000ff1	5.719e-42
111	0x8000577c	-3.1383e-41
112	0x0000c92b	7.2165e-41
113	0x0000252d	1.3336e-41
114	0x000001f6	7.03e-43
115	0x0000dc66	7.9064e-41
116	0x80003588	-1.9203e-41
117	0x3d5b1aaa	0.053492226
118	0x3cb5f868	0.022213176
119	0x3c7f68e3	0.015588972
120	0x3cab3576	0.020899516
121	0x3b5c09f5	0.003357527
122	0xbbde1da7	-0.006778437
123	0xbcdfd365	-0.02732248
124	0xbd19cac6	-0.037546895
125	0xbd623d44	-0.05523421
126	0x80007898	-4.3261e-41
127	0x8000be48	-6.826e-41
128	0x800098b1	-5.4775e-41
129	0x0000894e	4.9256e-41
130	0x80004999	-2.6402e-41
131	0x00005781	3.139e-41
132	0x800048ac	-2.607e-41
133	0x80009154	-5.2134e-41
134	0x800026f1	-1.397e-41
135	0x8000ba8f	-6.6925e-41
136	0x800125b6	-1.05364e-40
137	0x8001268c	-1.05664e-40
138	0x8000eeab	-8.5618e-41
139	0x80016790	-1.28987e-40
140	0x80003957	-2.057e-41
141	0x00010760	9.4481e-41
142	0x8000a462	-5.897e-41
143	0x8000ed97	-8.5231e-41
144	0x3cf4c463	0.0298788
145	0x3ae7949f	0.0017668194
146	0x3b87fe57	0.0041501927
147	0x3c22a27f	0.009926437
148	0xbb429ff8	-0.00296974
149	0xbb465289	-0.0030261597
150	0xbb7208a6	-0.0036931424
151	0xbc47fe99	-0.012206697
152	0xbcec7a66	-0.028866958
153	0x3d3cd151	0.046098057
154	0x3b227b76	0.0024792827
155	0xbc4f4924	-0.012651715
156	0x3c8645d6	0.016390722
157	0xbbb13d7c	-0.005408941
158	0xbc99ec09	-0.018789308
159	0xbce19c92	-0.027540479
160	0xbd291081	-0.041275505
161	0xbd6ea42c	-0.058262035
162	0xbc473fd1	-0.012161211
163	0xbb8a978b	-0.004229491
164	0x3c9538f1	0.018215628
165	0xbc56d184	-0.013111476
166	0x3b037499	0.0020058511
167	0x3c336223	0.010948691
168	0x3beedb89	0.007289354
169	0x3c20ef0e	0.00982262
170	0x3a6bc66d	0.00089941063
171	0x3d904e63	0.07046201
172	0x3ca2eb89	0.019887703
173	0x3ce5295f	0.027973829
174	0x3cbbadd4	0.022910036
175	0x3b52d147	0.0032168196
176	0x3b620ed5	0.0034493704
177	0x3b4cb2bd	0.0031234466
178	0xbb0960f7	-0.0020962337
179	0xbc7378e2	-0.014860364
180	0x3caad713	0.020854509
181	0x3ca99bcc	0.020704173
182	0x3d222985	0.039590377
183	0x3bf5ff9b	0.007507277
184	0x3b6806c4	0.0035404423
185	0x37b6a8ab	2.1774633e-05
186	0x3c56ce47	0.013110704
187	0x3ba52c94	0.0050407145
188	0xbc994328	-0.01870878
189	0x3d5cad17	0.05387601
190	0x3d3a9182	0.045548923
191	0x3d823c27	0.063591294
192	0x3c47c676	0.012193313
193	0x3a9d2977	0.0011990507
194	0x3a568e4e	0.0008184657
195	0xba7d8d3f	-0.00096722314
196	0xbc428c1e	-0.011874227
197	0xbccdfa98	-0.025143906
198	0x3a4dfa53	0.00078574306
199	0x3ce74c94	0.028234757
200	0xbcd6d61b	-0.02622514
201	0x3aabb739	0.0013100869
202	0x3c56c06b	0.013107399
203	0xbbae190f	-0.005313046
204	0xbbcfbf9b	-0.00633998
205	0x3a0758d6	0.0005163079
206	0x3c64f792	0.013975041
207	0x3a5b9b7e	0.0008377357
208	0x3a917749	0.0011098172
209	0x3a8c624e	0.001071045
210	0x3a10bd02	0.00055213284
211	0x3a35a4ca	0.00069291575
212	0x3a2bc318	0.00065522036
213	0x39e098e8	0.00042838533
214	0x3a17f871	0.00057972135
215	0x3a2f4202	0.0006685556
216	0x8564efb1	-1.0764533e-35
217	0x857e40df	-1.19549375e-35
218	0x052e53ef	8.196857e-36
219	0x0563e05c	1.0714697e-35
220	0x053359a2	8.4330025e-36
221	0x8514dc10	-6.999346e-36
222	0x055c7c11	1.0367138e-35
223	0x0559ebb6	1.0246584e-35
224	0x8522f927	-7.6629655e-36
225	0x8000a55d	-5.9321e-41
226	0x8000e201	-8.1075e-41
227	0x80009299	-5.259e-41
228	0x00007a9a	4.3981e-41
229	0x0000db57	7.8684e-41
230	0x00009110	5.2039e-41
231	0x800017fb	-8.603e-42
232	0x00004942	2.628e-41
233	0x0000cb57	7.2945e-41
234	0x3bac48bf	0.0052576954
235	0x3c908df4	0.017645814
236	0xbd10b1fb	-0.035325985
237	0xbb7ac918	-0.0038266834
238	0x3b3d0cc0	0.002884671
239	0xbc36c2f4	-0.011154879
240	0xbcb80073	-0.022461152
241	0xbc6b7791	-0.014371769
242	0x3c322c5f	0.010874837
243	0x3d8c54d9	0.06852121
244	0x3c968480	0.018373728
245	0x3cf84c70	0.030309886
246	0x3cb8b678	0.022547945
247	0xbb406040	-0.0029354244
248	0x3b706507	0.003668131
249	0x3ba287dd	0.004960044
250	0xbbfb2eed	-0.007665506
251	0xbc5026e4	-0.012704585
252	0xbc49f34c	-0.012326073
253	0x3ce2df67	0.027694417
254	0xba9fc934	-0.00121907
255	0xbba37441	-0.004988224

e_conv3.bias f4 [32]
0	0x3d046d16	0.032330595
1	0xbae6b8ac	-0.0017602644
2	0x3c859e38	0.016310796
3	0x3ce2dc03	0.0276928
4	0xbb63d6e9	-0.0034765548
5	0x3c0de5e6	0.008660769
6	0x3c5ce43e	0.013482152
7	0x3ce329be	0.027729865
8	0x3b861e05	0.004092934
9	0x3d4746e0	0.048651576
10	0xbb584634	-0.0033000829
11	0xb940a530	-0.00018372084
12	0xbbbd975c	-0.0057858657
13	0xb9aa0445	-0.00032428108
14	0x3d06af25	0.032881875
15	0x3c850760	0.016238868
16	0x3c1ce935	0.009577085
17	0xb9bbb2b1	-0.00035800555
18	0xbbbef794	-0.0058278535
19	0xb24c1a12	-1.18802905e-08
20	0xbd0898c2	-0.033348806
21	0xb51b9d36	-5.797077e-07
22	0x3c0f3a13	0.008741873
23	0x3c826aaf	0.015920011
24	0xbba94de6	-0.005166757
25	0xbcb3f0d8	-0.02196543
26	0x3c9fabff	0.019491194
27	0x3c9c9d8a	0.01911809
28	0x3c9b7703	0.018977648
29	0xbc5f40a2	-0.0136262495
30	0x3c11f9eb	0.008909683
31	0x3cf286b3	0.029605245

e_conv4.weight f4 [32, 32, 3, 3]
0	0xbdb1cdf8	-0.086818635
1	0xbd04559e	-0.032308213
2	0xbdaa80e7	-0.083253674
3	0xbbc9e6d8	-0.006161552
4	0x3c60c2ba	0.013718301
5	0xbbca86bc	-0.0061806124
6	0xbcc34d9a	-0.023840714
7	0x3bb6b8be	0.005576222
8	0xbba910da	-0.0051594796
9	0x371f17cb	9.482678e-06
10	0xb743e193	-1.1675426e-05
11	0xb6f7c8fd	-7.3845717e-06
12	0xb7d5192a	-2.5403297e-05
13	0xb911e435	-0.00013913291
14	0xb8c8d131	-9.575708e-05
15	0xb89485f9	-7.082144e-05
16	0xb9970544	-0.00028804888
17	0xb9897094	-0.00026214554
18	0xbcef3bff	-0.029203413
19	0xbcc9bcfb	-0.024626246
20	0xbd81f5a5	-0.06345681
21	0x3a26660e	0.0006347605
22	0x3b6d3340	0.0036193877
23	0xbbf94234	-0.007606769
24	0x3cf2e114	0.029648341
25	0x3c8fa005	0.017532358
26	0x3d0902bd	0.033449877
27	0xbd0efa83	-0.034906875
28	0xbc169d19	-0.009192728
29	0xbc15886c	-0.009126764
30	0x3bd24fb2	0.006418192
31	0x3c43c72c	0.011949342
32	0x3c274bbc	0.010210928
33	0x3c87e64f	0.016589312
34	0x3c897cfd	0.016783232
35	0x3d0eb528	0.034840733
36	0xb0f6bd9a	-1.7952744e-09
37	0xb07d958c	-9.225338e-10
38	0xb054e122	-7.7445084e-10
39	0xaa89c472	-2.44724e-13
40	0xaa5efe7c	-1.9805853e-13
41	0xa88c9f39	-1.5612174e-14
42	0xb364b274	-5.324769e-08
43	0xb37f0255	-5.9373935e-08
44	0xb2f9e162	-2.9089907e-08
45	0xbd6889c9	-0.056772027
46	0xbd1ac8f4	-0.0377893
47	0xbd45cce3	-0.0482911
48	0x39cf0883	0.00039488458
49	0xb9a65f4c	-0.0003173299
50	0xbbd12204	-0.006382229
51	0x3d18fc7f	0.037350174
52	0x3bddb115	0.0067654946
53	0xba5395f4	-0.0008071356
54	0x3bdd9b5d	0.0067629055
55	0x3d1a3e3d	0.03765701
56	0x3e0b5cc9	0.13609613
57	0x3c3a5394	0.011372466
58	0x3b550dbf	0.0032509414
59	0x3cd24f79	0.025672661
60	0x3e17ee4d	0.14836998
61	0x3d2cc1df	0.042177077
62	0xbaa15741	-0.0012309329
63	0xbcb711dd	-0.022347385
64	0xbbca8d9f	-0.0061814333
65	0xbc666dc8	-0.01406426
66	0x3b21db39	0.0024697317
67	0x3c1217b8	0.008916788
68	0x3bc83e81	0.0061109667
69	0x3aeda36c	0.0018130369
70	0x3c30ccb6	0.010790994
71	0x3cef80b2	0.029236171
72	0xbd0e3a4f	-0.034723576
73	0xbc32ef96	-0.01092138
74	0xbd254bde	-0.040355556
75	0x3c147f1f	0.009063511
76	0x3c99de7c	0.018782847
77	0x3ba981a7	0.0051729265
78	0x3d412dbf	0.047162767
79	0x3cade836	0.02122889
80	0x3c792b74	0.015208114
81	0xbd6107be	-0.054939024
82	0xbc93809d	-0.018005664
83	0xbcfd7add	-0.030942375
84	0x3ba96c1a	0.0051703574
85	0x3c54750a	0.012967357
86	0x3b93db2d	0.004512212
87	0x3d10237b	0.035190087
88	0x3cb41986	0.021984827
89	0x3cc23d14	0.023710765
90	0x390cf5ac	0.0001344296
91	0x38ed6cbf	0.00011321296
92	0x386eb259	5.690972e-05
93	0x397a3b00	0.00023863837
94	0x395eaeb5	0.00021236653
95	0x38f9d48d	0.00011912836
96	0x398dbfb8	0.00027036457
97	0x397f6d94	0.00024359516
98	0x391dad5e	0.00015037271
99	0x8010aacb	-1.530637e-39
100	0x00004b51	2.7018e-41
101	0x80004de1	-2.7938e-41
102	0x00018e62	1.42913e-40
103	0x00001270	6.614e-42
104	0x80000693	-2.358e-42
105	0x0001f35e	1.79139e-40
106	0x800063db	-3.5821e-41
107	0x8000b14f	-6.3606e-41
108	0xbd837f8f	-0.06420814
109	0xbcd728b3	-0.026264524
110	0xbd37064d	-0.044683743
111	0x3b1a30f4	0.0023527713
112	0x3c3becdc	0.011470046
113	0x3b8d277c	0.0043076854
114	0x3bc7a28b	0.0060923747
115	0x3c4f15c8	0.01263947
116	0x3ca4eba9	0.020131903
117	0x00000da9	4.9e-42
118	0x000073f0	4.159e-41
119	0x80006241	-3.5247e-41
120	0x000d6e2c	1.233384e-39
121	0x0000c0f0	6.9213e-41
122	0x8000baba	-6.6985e-41
123	0x065cf2c2	4.155575e-35
124	0x8000622d	-3.5219e-41
125	0x0000266c	1.3783e-41
126	0xbcfc4ddd	-0.030798847
127	0xbca0daf7	-0.01963566
128	0xbd012c3e	-0.031536333
129	0x3ab8829e	0.0014077013
130	0x3b50118a	0.0031748735
131	0xb9bd70aa	-0.0003613283
132	0x3d6dcfd2	0.05805952
133	0x3d1c26d0	0.038122952
134	0x3d2b8a09	0.041879687
135	0x3d74bc56	0.059749924
136	0x3d2f515d	0.042802203
137	0x3da79740	0.081831455
138	0x3c0e7056	0.008693775
139	0x3b855787	0.004069272
140	0x3c97fdfa	0.018553723
141	0x3cb5cafd	0.022191519
142	0x3c947bdc	0.018125467
143	0x3cae1dff	0.021254538
144	0xbbbe031d	-0.005798711
145	0xb9724648	-0.000231051
146	0x3d1cba27	0.038263466
147	0xbc36d276	-0.011158576
148	0x39489673	0.00019129533
149	0x3bbe2433	0.005802655
150	0xbc486cd6	-0.01223298
151	0x392b6d76	0.00016348608
152	0xbd0f3659	-0.03496394
153	0x020b2c85	1.0224884e-37
154	0x0113d289	2.7150687e-38
155	0x020de9fb	1.0426193e-37
156	0x81f26302	-8.903883e-38
157	0x81bc58c9	-6.9187694e-38
158	0x802014a4	-2.94614e-39
159	0x821bf4dc	-1.1457873e-37
160	0x8123f775	-3.0115913e-38
161	0x02d94465	3.192454e-37
162	0xbd270cfe	-0.040783875
163	0xbc9d0022	-0.019165102
164	0xbd112ffd	-0.035446156
165	0x3bce781c	0.0063009392
166	0x3c3887d8	0.011262856
167	0x3bcca496	0.006245206
168	0x3baa8025	0.0052032643
169	0x3c1a440d	0.009415639
170	0x3cd6124c	0.026131772
171	0x0000abbc	6.1607e-41
172	0x0000812e	4.6341e-41
173	0x0000b225	6.3906e-41
174	0x000078ec	4.3379e-41
175	0x00007024	4.0228e-41
176	0x80001f25	-1.1173e-41
177	0x8000936a	-5.2882e-41
178	0x80005516	-3.0523e-41
179	0x0000a8cb	6.0552e-41
180	0xbd6f485b	-0.058418613
181	0xbcd07eeb	-0.025451144
182	0xbd18cf0c	-0.03730683
183	0x3af4e585	0.0018684125
184	0x3c7583e8	0.014985062
185	0x3c587e65	0.013213729
186	0x3d0f1015	0.034927446
187	0x3ca976b6	0.020686489
188	0x3c4cd9d6	0.012503108
189	0x0000b8e4	6.6326e-41
190	0x80000274	-8.8e-43
191	0x8000005a	-1.26e-43
192	0x800015fb	-7.885e-42
193	0x00001f78	1.1289e-41
194	0x800061a0	-3.5021e-41
195	0x000004b2	1.684e-42
196	0x000086c1	4.834e-41
197	0x80003511	-1.9037e-41
198	0xbd46cecc	-0.04853706
199	0xbc55c30b	-0.01304699
200	0x3cd058a4	0.025432892
201	0xbc9f69ae	-0.019459572
202	0x3988934e	0.00026049692
203	0x3be0494d	0.0068446756
204	0xbc73c1e0	-0.014877766
205	0xbac7e83a	-0.0015251704
206	0xbd219c32	-0.0394556
207	0x3d851a07	0.06499105
208	0xbcd6e1f9	-0.026230799
209	0xbe007501	-0.12544633
210	0x3cc5e2a0	0.024155915
211	0x3c5bb5af	0.013410016
212	0xbbcb8854	-0.00621132
213	0xbdd25f20	-0.1027205
214	0xbbd10a82	-0.0063794265
215	0x3ccf9aab	0.025342306
216	0xbbba0de0	-0.0056779236
217	0x3b6b5919	0.003591126
218	0x3d5ece58	0.054396003
219	0xbb509c79	-0.0031831546
220	0x3b5239b9	0.0032077862
221	0x3c562779	0.013070934
222	0x3b917865	0.004439401
223	0x3b9f2b69	0.00485747
224	0xbcc9c590	-0.024630338
225	0xbc115ee6	-0.008872723
226	0x3bf644ee	0.0075155413
227	0x3cc1e055	0.02366654
228	0x3ba8a205	0.0051462674
229	0x3bf46387	0.0074581536
230	0x3c22d7ff	0.009939193
231	0x3d4de814	0.050270155
232	0x3cd26633	0.025683498
233	0x3d2bf9f0	0.041986406
234	0xbd14af56	-0.036300026
235	0xbc68881f	-0.01419261
236	0xbcfb409e	-0.03067046
237	0x3b7e8e97	0.0038842314
238	0x3c585f8a	0.013206372
239	0x3c0f40c5	0.00874347
240	0x3ca0c21b	0.019623807
241	0x3c89227c	0.016740076
242	0x3caa3887	0.020778907
243	0xbd247462	-0.040150054
244	0xbc0b7f41	-0.008514226
245	0xbc02730f	-0.007962002
246	0xbaf003b2	-0.0018311648
247	0x3c1079c1	0.008818091
248	0x3c1857b1	0.009298251
249	0x3c0a79d4	0.008451898
250	0x3c2b6e99	0.01046338
251	0x3cc0c252	0.02353016
252	0xbcb762ae	-0.022385921
253	0xbc8b7fdc	-0.017028742
254	0xbd20ad45	-0.039227743
255	0x3c5ff4d2	0.01366921

e_conv4.bias f4 [32]
0	0x3d661332	0.05617065
1	0xba907b88	-0.0011023143
2	0x3c10bd35	0.008834173
3	0x3c9e8e6e	0.019355025
4	0x3cc9efaa	0.024650414
5	0xbce202ae	-0.027589168
6	0x3c53d17a	0.012928361
7	0x3c8dccb1	0.017309519
8	0xbca07e59	-0.019591497
9	0x3cab9bd9	0.020948337
10	0xb9538b61	-0.00020174451
11	0xae4bfaa4	-4.637947e-11
12	0xb61dffa2	-2.354362e-06
13	0x3d2dde36	0.042448245
14	0xbab2422f	-0.0013600047
15	0x3cd17b23	0.025571411
16	0xa60681f8	-4.666673e-16
17	0xbc6df0cd	-0.014522743
18	0x3d2a7b2f	0.041621383
19	0xa2b5f913	-4.9323866e-18
20	0xbb0b5763	-0.0021261803
21	0x3c7dd366	0.015492296
22	0x3c54604d	0.012962413
23	0x3ce3f4d6	0.027826708
24	0xbaaec4b5	-0.001333377
25	0x3c924b1e	0.017858084
26	0x3d0ea3b9	0.034824107
27	0x3b5078a7	0.0031810196
28	0x3d279259	0.040911052
29	0x3c87f7f1	0.01659772
30	0xb8715fec	-5.754821e-05
31	0xb95611ba	-0.00020415234

e_conv5.weight f4 [32, 64, 3, 3]
0	0x00007bf4	4.4466e-41
1	0x000059b1	3.2175e-41
2	0x00008238	4.6714e-41
3	0x8000948c	-5.3289e-41
4	0x8000c21f	-6.9638e-41
5	0x8000b89a	-6.6223e-41
6	0x00005299	2.963e-41
7	0x0000481f	2.5872e-41
8	0x80005137	-2.9134e-41
9	0x80010d9b	-9.6716e-41
10	0x80002ffd	-1.7215e-41
11	0x80015c14	-1.24867e-40
12	0x8000fcfd	-9.0755e-41
13	0x0000df5f	8.013e-41
14	0x00014510	1.1661e-40
15	0x0000acb0	6.1949e-41
16	0x8000f31d	-8.7213e-41
17	0x8001e476	-1.73792e-40
18	0x00003934	2.052e-41
19	0x8000c5dd	-7.098e-41
20	0x8000624d	-3.5264e-41
21	0x000024c3	1.3188e-41
22	0x0000404a	2.3063e-41
23	0x8000d37b	-7.5865e-41
24	0x0000cbea	7.315e-41
25	0x80011955	-1.00923e-40
26	0x800024a5	-1.3146e-41
27	0x80001c30	-1.0112e-41
28	0x8000affd	-6.3133e-41
29	0x80001c9b	-1.0262e-41
30	0x8000126c	-6.609e-42
31	0x000057af	3.1455e-41
32	0x8000df75	-8.0161e-41
33	0x0000cd99	7.3755e-41
34	0x000088a2	4.9015e-41
35	0x80001b3a	-9.767e-42
36	0x80003198	-1.7791e-41
37	0x00015019	1.20569e-40
38	0x80008b91	-5.0067e-41
39	0x8000e453	-8.1907e-41
40	0x8000a225	-5.8166e-41
41	0x80020109	-1.84042e-40
42	0x0001f524	1.79775e-40
43	0x0001880b	1.40639e-40
44	0x800188ee	-1.40957e-40
45	0x00005447	3.0233e-41
46	0x00001240	6.547e-42
47	0x000032eb	1.8266e-41
48	0x0000bb6d	6.7236e-41
49	0x8000e5af	-8.2395e-41
50	0x00010501	9.363e-41
51	0x00012811	1.06209e-40
52	0x00010943	9.5158e-41
53	0x00006c9b	3.896e-41
54	0x0000486f	2.5984e-41
55	0x00005d6d	3.3515e-41
56	0x00002091	1.1683e-41
57	0x8000026e	-8.72e-43
58	0x0000ba2d	6.6787e-41
59	0x0000d2f9	7.5683e-41
60	0x0000d58d	7.6608e-41
61	0x00008a8d	4.9703e-41
62	0x0000cc49	7.3284e-41
63	0x8000f2c7	-8.7092e-41
64	0x00009e8a	5.6873e-41
65	0x8000c2ae	-6.9838e-41
66	0x00009fb0	5.7285e-41
67	0x8000de58	-7.9762e-41
68	0x0000efdd	8.6047e-41
69	0x000001ee	6.92e-43
70	0x80007ccd	-4.477e-41
71	0x8000a52a	-5.925e-41
72	0x80000182	-5.41e-43
73	0x8000c63e	-7.1116e-41
74	0x0000b237	6.3931e-41
75	0x8000bf6a	-6.8666e-41
76	0x0000805c	4.6047e-41
77	0x800071a6	-4.077e-41
78	0x00008aec	4.9836e-41
79	0x0000bdb8	6.8058e-41
80	0x80008ecb	-5.1224e-41
81	0x8000ba0d	-6.6742e-41
82	0x8001029a	-9.2769e-41
83	0x8000dce4	-7.924e-41
84	0x0000e0e3	8.0674e-41
85	0x0000e5eb	8.2479e-41
86	0x0000d069	7.4763e-41
87	0x8000cdad	-7.3783e-41
88	0x0000ce6f	7.4054e-41
89	0x80004b27	-2.696e-41
90	0x000192e4	1.4453e-40
91	0x0001864d	1.40014e-40
92	0x0000ca3b	7.2547e-41
93	0x00012e3a	1.08418e-40
94	0x80014be0	-1.19054e-40
95	0x8000e8ba	-8.3487e-41
96	0x0001d380	1.67707e-40
97	0x00002ce0	1.6098e-41
98	0x0001419d	1.15373e-40
99	0x80014bb2	-1.1899e-40
100	0x80006265	-3.5297e-41
101	0x00000885	3.056e-42
102	0x00002b55	1.5545e-41
103	0x8000a212	-5.814e-41
104	0x0000732d	4.1317e-41
105	0x0000061f	2.196e-42
106	0x00010d93	9.6705e-41
107	0x0001d34c	1.67635e-40
108	0x8000288d	-1.4547e-41
109	0x8000c727	-7.1442e-41
110	0x8000cc9f	-7.3404e-41
111	0x0000c26e	6.9748e-41
112	0x0000bccf	6.7732e-41
113	0x00007f21	4.5605e-41
114	0x8000e1af	-8.096e-41
115	0x0000d51c	7.6449e-41
116	0x800044ce	-2.4682e-41
117	0x0000d413	7.6078e-41
118	0x0001b529	1.56824e-40
119	0x00013cbd	1.13624e-40
120	0x80006e8e	-3.966e-41
121	0x00010d44	9.6594e-41
122	0x80021e39	-1.94513e-40
123	0x800109dc	-9.5372e-41
124	0x800180d3	-1.38049e-40
125	0x0001272f	1.05892e-40
126	0x800093c0	-5.3003e-41
127	0x800102b9	-9.2812e-41
128	0x800109cf	-9.5354e-41
129	0x0000a8c4	6.0542e-41
130	0x0000d9eb	7.8174e-41
131	0x00009d8a	5.6514e-41
132	0x00000950	3.34e-42
133	0x800027bb	-1.4253e-41
134	0x0000c9a1	7.2331e-41
135	0x000014f9	7.524e-42
136	0x00005f90	3.4281e-41
137	0x0000122b	6.517e-42
138	0x0000976a	5.4317e-41
139	0x8000174d	-8.359e-42
140	0x0000c653	7.1145e-41
141	0x8000a31a	-5.851e-41
142	0x0000c191	6.9439e-41
143	0x8000aaee	-6.1318e-41
144	0x800083b2	-4.7243e-41
145	0x8000aab4	-6.1237e-41
146	0x8000ccac	-7.3422e-41
147	0x8000cca7	-7.3415e-41
148	0x8000d05d	-7.4747e-41
149	0x00004390	2.4237e-41
150	0x00007f92	4.5764e-41
151	0x80009622	-5.3858e-41
152	0x0000b4ef	6.4907e-41
153	0x80014d51	-1.19571e-40
154	0x8000897d	-4.9322e-41
155	0x000153d6	1.2191e-40
156	0x000102c0	9.2822e-41
157	0x00012f26	1.08749e-40
158	0x0000dbd6	7.8862e-41
159	0x80010871	-9.4864e-41
160	0x80005d01	-3.3364e-41
161	0x00014e35	1.19891e-40
162	0x00001307	6.826e-42
163	0x0000574a	3.1313e-41
164	0x0000ac75	6.1866e-41
165	0x0000410c	2.3334e-41
166	0x800093ff	-5.3091e-41
167	0x0000f6b0	8.8495e-41
168	0x0000e48b	8.1986e-41
169	0x0000a886	6.0455e-41
170	0x00007366	4.1397e-41
171	0x0001a77b	1.51916e-40
172	0x80014d0a	-1.19472e-40
173	0x00018926	1.41035e-40
174	0x0000a969	6.0773e-41
175	0x0001404d	1.14902e-40
176	0x80015f98	-1.26128e-40
177	0x00013fde	1.14747e-40
178	0x0001b417	1.5644e-40
179	0x8001ca90	-1.64501e-40
180	0x000060da	3.4744e-41
181	0x8000cff6	-7.4602e-41
182	0x0000c2e5	6.9915e-41
183	0x80000fc6	-5.658e-42
184	0x8000b3c2	-6.4485e-41
185	0x000087b6	4.8684e-41
186	0x0000d785	7.7314e-41
187	0x8000801e	-4.596e-41
188	0x00005326	2.9828e-41
189	0x00015627	1.22741e-40
190	0x00015f96	1.26125e-40
191	0x00016364	1.2749e-40
192	0x000233e4	2.02286e-40
193	0x80005b48	-3.2746e-41
194	0x000086a0	4.8294e-41
195	0x00019d9e	1.48378e-40
196	0x0000cf32	7.4328e-41
197	0x00015b43	1.24574e-40
198	0x000037f7	2.0076e-41
199	0x0000e9c3	8.3858e-41
200	0x800012a4	-6.687e-42
201	0x00006595	3.6441e-41
202	0x0000c623	7.1078e-41
203	0x0000699d	3.7887e-41
204	0x0000526d	2.9569e-41
205	0x0000d854	7.7604e-41
206	0x00001f0e	1.114e-41
207	0x800002ad	-9.6e-43
208	0x00003d5b	2.201e-41
209	0x000040a5	2.319e-41
210	0x8000a45c	-5.8961e-41
211	0x8000e33d	-8.1518e-41
212	0x80007b1e	-4.4166e-41
213	0x80007b47	-4.4224e-41
214	0x8000d131	-7.5044e-41
215	0x00002978	1.4876e-41
216	0x8000c4a3	-7.054e-41
217	0x80006b30	-3.8452e-41
218	0x80001e61	-1.0898e-41
219	0x80001846	-8.708e-42
220	0x0000d44e	7.616e-41
221	0x0000de9a	7.9854e-41
222	0x00001f88	1.1311e-41
223	0x0000b9c8	6.6646e-41
224	0x0000c2e6	6.9916e-41
225	0x00009911	5.491e-41
226	0x8000cfff	-7.4615e-41
227	0x8000a637	-5.9627e-41
228	0x000077fd	4.3044e-41
229	0x00010cd3	9.6436e-41
230	0x800103d3	-9.3207e-41
231	0x0000ecd5	8.496e-41
232	0x00001356	6.936e-42
233	0x0000d4d6	7.6351e-41
234	0x0000e77e	8.3044e-41
235	0x800095b0	-5.3698e-41
236	0x00007c93	4.4689e-41
237	0x80004ad1	-2.6839e-41
238	0x8000a44e	-5.8941e-41
239	0x0000e91f	8.3628e-41
240	0x0000ea42	8.4036e-41
241	0x80003308	-1.8307e-41
242	0x000033c7	1.8574e-41
243	0x80002ddf	-1.6455e-41
244	0x00008707	4.8439e-41
245	0x0000d5bd	7.6675e-41
246	0x80005602	-3.0854e-41
247	0x00006af0	3.8362e-41
248	0x0000a445	5.8929e-41
249	0x00004ca1	2.7489e-41
250	0x80006bf2	-3.8723e-41
251	0x00000e5c	5.151e-42
252	0x00007d96	4.5052e-41
253	0x80003a9d	-2.1026e-41
254	0x0000a1db	5.8063e-41
255	0x8000cf12	-7.4283e-41

e_conv5.bias f4 [32]
0	0x8f53aa9d	-1.0435962e-29
1	0x3cdacbcb	0.026708504
2	0x3b5cc18c	0.00336847
3	0x3c33f415	0.010983487
4	0x3b370dd2	0.0027931822
5	0xbb099072	-0.0020990637
6	0x3cf5e269	0.030015187
7	0x3cba1b93	0.022718227
8	0x3d2489e1	0.040170554
9	0x3c9aad49	0.018881457
10	0x3d477b99	0.048701856
11	0x3bb1ccfa	0.0054260464
12	0x3cad89e5	0.021183917
13	0xb7870141	-1.6093838e-05
14	0xbc035ee9	-0.008018234
15	0x3c8ef6fa	0.017451752
16	0xba8828cc	-0.0010388135
17	0x3cafb366	0.021447849
18	0x3cbc4987	0.02298428
19	0xb82da7d3	-4.1402713e-05
20	0xbb918196	-0.0044404967
21	0xbbe1fab8	-0.006896343
22	0x3cc6adc6	0.024252784
23	0xb26654a8	-1.3407011e-08
24	0x3cbd4de5	0.023108432
25	0x3a605a05	0.0008558336
26	0x3c99a7c0	0.018756747
27	0x3d179377	0.037005868
28	0xbc1e2937	-0.009653381
29	0x3c5a91a5	0.013340388
30	0x3cd0d8d8	0.025494024
31	0x3c3f8c33	0.011691141

e_conv6.weight f4 [32, 64, 3, 3]
0	0xbc5864fe	-0.013207672
1	0xbc2225a0	-0.009896666
2	0xbcade361	-0.021226587
3	0x3b745f02	0.0037288074
4	0x3a6cd421	0.0009034295
5	0x3c7ce8de	0.015436379
6	0x3b854599	0.0040671346
7	0x3c82ea99	0.015981006
8	0xbc29fb42	-0.010374846
9	0x0000eb89	8.4494e-41
10	0x0000eec1	8.5649e-41
11	0x00010c58	9.6264e-41
12	0x000103e0	9.3226e-41
13	0x000103e7	9.3235e-41
14	0x800116f4	-1.0007e-40
15	0x80001508	-7.545e-42
16	0x0000ccc7	7.346e-41
17	0x8000b351	-6.4327e-41
18	0xa0094f10	-1.1630511e-19
19	0x9f838970	-5.570803e-20
20	0xa0001144	-1.0847734e-19
21	0x1f1ba2a1	3.295705e-20
22	0x9f928215	-6.204861e-20
23	0x9d44b5a7	-2.6034296e-21
24	0x201803f5	1.287621e-19
25	0x1f11a327	3.08399e-20
26	0x1fafd676	7.447018e-20
27	0x3af247da	0.0018484548
28	0x3c466932	0.012110041
29	0xba462dcf	-0.00075599266
30	0x3b18c0fc	0.0023308387
31	0xbc2ccfd1	-0.010547594
32	0xbb942d5e	-0.0045220098
33	0x3a9b7a74	0.0011862055
34	0x3c1ec0ff	0.009689569
35	0x3b1a27b1	0.0023522193
36	0x3c050098	0.008117817
37	0xba8540b4	-0.0010166378
38	0xba531673	-0.00080523564
39	0x3c6ef603	0.014585021
40	0x3c5e7e13	0.013579863
41	0x3c2f8b2b	0.010714333
42	0x38df20eb	0.000106396
43	0x3cd840ff	0.02639818
44	0x3cc8e89a	0.024524976
45	0xbb66427f	-0.003513485
46	0xb967e398	-0.00022114662
47	0xbb365a48	-0.0027824808
48	0x3b82cf31	0.0039919843
49	0xbbaa71b7	-0.005201544
50	0x3bd391e6	0.0064566014
51	0xbb1fe7fe	-0.0024399753
52	0x3cdd7719	0.02703433
53	0x3b2b45d5	0.0026134152
54	0xbcde4db9	-0.02713667
55	0x3c2847b7	0.010271004
56	0xbc8de203	-0.017319685
57	0x39a41db0	0.00031302636
58	0x3a33b067	0.0006854594
59	0xba80f558	-0.0009838743
60	0xbbd4d769	-0.0064954055
61	0x3c03c328	0.008042134
62	0xbc2ec1d8	-0.010666333
63	0xbce0b4a6	-0.02742989
64	0xbc9d0329	-0.019166546
65	0xbbfc147b	-0.007692871
66	0xbc857c69	-0.016294675
67	0xbc28bb50	-0.010298565
68	0xbb87ec02	-0.0041480074
69	0xbb40c6b5	-0.0029415314
70	0x3c89ca87	0.016820205
71	0x3c3c9acd	0.011511517
72	0x3bb619d6	0.005557279
73	0x3acc9664	0.0015608785
74	0x3b169681	0.002297789
75	0x3b8b0b0b	0.00424326
76	0x3cc24f85	0.023719558
77	0xbace27dd	-0.0015728433
78	0x3c3cdc07	0.011527068
79	0x3c9d5a7a	0.019208182
80	0x3c7c02df	0.015381544
81	0x3b6eec5a	0.0036456794
82	0xbbad01e6	-0.0052797673
83	0x3a8d7467	0.0010792137
84	0x3caffdc2	0.021483306
85	0x3c30fef0	0.010802969
86	0xbaa7c42f	-0.0012799556
87	0x3a83fed0	0.0010070447
88	0x3b89d475	0.004206235
89	0x3b169fd4	0.0022983449
90	0xbb9491e5	-0.0045339935
91	0x3b65373b	0.0034975547
92	0x3ae341c3	0.0017338324
93	0x3bcd4a73	0.0062649786
94	0x3c15a82e	0.009134335
95	0x3b11bfd9	0.0022239594
96	0x3c244eec	0.010028582
97	0x3c117fa2	0.008880528
98	0x3c69da72	0.014273273
99	0xb22cfe98	-1.0069606e-08
100	0xb2b6ae8f	-2.1266969e-08
101	0xb332e48f	-4.1651727e-08
102	0x3233a91b	1.0457621e-08
103	0xb0725f02	-8.81741e-10
104	0xb28cdeb1	-1.6399413e-08
105	0x3303e581	3.0709547e-08
106	0x32c38c75	2.276486e-08
107	0x31fa7064	7.288735e-09
108	0x000034d8	1.8957e-41
109	0x00004fd4	2.8637e-41
110	0x80001b06	-9.694e-42
111	0x000077db	4.2996e-41
112	0x00009d9c	5.654e-41
113	0x80008639	-4.815e-41
114	0x0000145f	7.308e-42
115	0x00006454	3.5991e-41
116	0x80005bbb	-3.2907e-41
117	0xbb76daa1	-0.0037666934
118	0xbc8c629c	-0.017136864
119	0xb9bbd0c9	-0.00035822976
120	0x3b8f27b2	0.0043687457
121	0x3ba7a536	0.00511613
122	0x3b198b40	0.0023428947
123	0x3ba99d47	0.0051762196
124	0x3be9e6b7	0.007138099
125	0x3b8d831e	0.004318609
126	0x800006f2	-2.492e-42
127	0x80014425	-1.16281e-40
128	0x800240f4	-2.06972e-40
129	0x00004883	2.6012e-41
130	0x8000e5a6	-8.2382e-41
131	0x80011ecd	-1.02885e-40
132	0x000029d5	1.5007e-41
133	0x800081ad	-4.6519e-41
134	0x8000c7bd	-7.1653e-41
135	0x8000ed91	-8.5223e-41
136	0x00010357	9.3034e-41
137	0x0000e879	8.3395e-41
138	0x00010400	9.327e-41
139	0x8000ddc3	-7.9553e-41
140	0x0000effe	8.6093e-41
141	0x8000977b	-5.4341e-41
142	0x8000cef5	-7.4242e-41
143	0x8000be61	-6.8295e-41
144	0x3aeb55a3	0.0017954599
145	0x3c440fd7	0.011966667
146	0x3bd71814	0.0065641496
147	0x3cba0759	0.022708582
148	0x3c16d000	0.0092048645
149	0x3bdac5f3	0.0066764294
150	0x3c427a30	0.011869952
151	0x3c3299f5	0.010900964
152	0x3c0e8914	0.008699674
153	0x3adb11c1	0.0016713665
154	0x3c04a7ed	0.008096677
155	0x3b88679e	0.0041627428
156	0x3c69c14a	0.014267275
157	0x3b4569d3	0.003012289
158	0x3c0193aa	0.007908741
159	0x3c3350a4	0.010944519
160	0x3c2fba20	0.010725528
161	0xbbd7944f	-0.006578959
162	0xbbf1fb5b	-0.0073847002
163	0xbb59f39e	-0.003325678
164	0x3b29d990	0.002591703
165	0xbc35684b	-0.011072229
166	0xbba93848	-0.00516418
167	0x3b3922bb	0.002824946
168	0x3a8791a9	0.0010343093
169	0x3accb210	0.0015617032
170	0x3be82545	0.007084521
171	0xbaa9ef6b	-0.0012965029
172	0x3be43509	0.00696433
173	0x3c262cbb	0.0101425005
174	0x3c0ba471	0.008523093
175	0x3be9b424	0.00713207
176	0x3c9f6048	0.01945509
177	0x3c0f09ba	0.008730346
178	0x3c4df266	0.012569999
179	0x3b378b0c	0.0028006462
180	0x3ba41605	0.0050075077
181	0x3bdfd913	0.006831297
182	0x3b5d8f7f	0.0033807454
183	0x3bc4168a	0.005984132
184	0xbb9b4496	-0.0047384007
185	0x3b5f40db	0.0034065756
186	0xbba04349	-0.0048908335
187	0x3c10d89a	0.008840704
188	0x3c11bb73	0.008894789
189	0x3a0e8e20	0.00054380484
190	0x3b69e698	0.0035690423
191	0x3bbc8682	0.0057533393
192	0xbc78b46e	-0.015179737
193	0x3c0c7a1f	0.008574038
194	0x3bf6dffd	0.0075340257
195	0xbd0f0125	-0.0349132
196	0xba3b688c	-0.00071490626
197	0xba8a1ad6	-0.0010536562
198	0x3aee75ae	0.001819303
199	0x3b696c8f	0.0035617684
200	0x3bafb6d8	0.005362373
201	0x3c4384bc	0.011933502
202	0x3a37172d	0.00069843495
203	0x3a878588	0.0010339478
204	0x3bbe89fc	0.005814789
205	0xbbd9016e	-0.006622485
206	0x3bdfacd0	0.006826021
207	0x3a376364	0.00069957064
208	0x39e72651	0.000440883
209	0x3a24df9e	0.0006289425
210	0x38b0d5fa	8.43219e-05
211	0xb92b816e	-0.00016356047
212	0x38a8c2aa	8.047123e-05
213	0xb7a058f2	-1.9114905e-05
214	0xb9a3a134	-0.00031209888
215	0xb89c0585	-7.439688e-05
216	0xaf8b6065	-2.5352445e-10
217	0xafc05046	-3.4981634e-10
218	0xb00719f4	-4.9149596e-10
219	0xaf14deb7	-1.3539646e-10
220	0xaf594e8e	-1.9763943e-10
221	0xafa0c8ca	-2.92465e-10
222	0xaf534cd3	-1.9217632e-10
223	0xaf9afe3c	-2.819308e-10
224	0xafece360	-4.308971e-10
225	0x80003ccb	-2.1808e-41
226	0x0000540e	3.0153e-41
227	0x80003bf0	-2.1502e-41
228	0x0000036a	1.225e-42
229	0x80000e8a	-5.216e-42
230	0x0000513b	2.914e-41
231	0x0000bba7	6.7317e-41
232	0x8000459d	-2.4973e-41
233	0x0000550f	3.0513e-41
234	0x3c790dcb	0.015201042
235	0x3c3d19e9	0.011541822
236	0x3b354574	0.0027659805
237	0x3ca728c6	0.020405184
238	0x3c37e6bc	0.011224445
239	0x3bebc2bb	0.0071948445
240	0x3ca5c045	0.020233283
241	0x3c868800	0.016422272
242	0x3c4fac71	0.012675391
243	0x39262551	0.00015844895
244	0x3c02ae1f	0.007976084
245	0xbba3fd5c	-0.005004568
246	0x3c687b4b	0.014189552
247	0x3c671052	0.014103012
248	0x3c185eb6	0.009299925
249	0x3c3498fb	0.0110228015
250	0x3b5ef383	0.0034019656
251	0x3c4af206	0.012386804
252	0x3a6969e7	0.00089040253
253	0x3b33dcea	0.0027444907
254	0xb9dcb7ee	-0.00042098708
255	0xbc500e18	-0.012698673

e_conv6.bias f4 [32]
0	0xbc201604	-0.009770874
1	0xb9a10136	-0.00030709215
2	0xbb091e02	-0.0020922427
3	0x3c55e011	0.01305391
4	0xa95bc857	-4.8801536e-14
5	0x3ba6d013	0.0050907223
6	0x3d396278	0.045259923
7	0x3b7083d7	0.0036699676
8	0x3c204211	0.009781376
9	0x91f279c3	-3.825591e-28
10	0x3d26e5fa	0.040746666
11	0x9dc39f43	-5.1780743e-21
12	0x3d7588b7	0.059944835
13	0x3d1af3c8	0.037830144
14	0x3d079b00	0.033106804
15	0x3c11440f	0.008866324
16	0xbca6f357	-0.020379705
17	0x923ccca6	-5.957459e-28
18	0x3c020435	0.007935573
19	0xbbf54591	-0.0074850996
20	0x3cb8aa83	0.022542244
21	0x3cc72e4c	0.024314068
22	0xb835dc58	-4.3358974e-05
23	0x3cfff7c5	0.031246075
24	0xbbdf549f	-0.0068155075
25	0x3c640e57	0.0139194345
26	0x3cc81c36	0.024427515
27	0x3d4b41f5	0.04962345
28	0xbba33002	-0.004980088
29	0xba08e13d	-0.00052215514
30	0x3d03b798	0.03215751
31	0xbc144c13	-0.009051341
