Zero-DCE_code/snapshots/Epoch199.pth (torch, 321787 bytes, 14 tensors)

e_conv1.weight f4 [32, 3, 3, 3]
0	0xbdb8156e	-0.089884624
1	0x3aee3ab9	0.001817546
2	0xbd2d43ca	-0.042300977
3	0xbd6a59c5	-0.057214517
4	0x3af7b320	0.0018897988
5	0x3c558172	0.01303135
6	0xbdb0ae56	-0.08627002
7	0x3c1945c0	0.009355009
8	0x3d575168	0.05256787
9	0xbd7d5c75	-0.061855752
10	0xbb589f79	-0.0033054037
11	0xbd45435c	-0.048159942
12	0xbcab3d3a	-0.020903219
13	0xbc3b91a1	-0.011448295
14	0xba03fe2a	-0.0005035127
15	0xbd1d1135	-0.038346488
16	0x3d04b5cf	0.03239995
17	0x3d57f798	0.05272636
18	0xbd7e4fe0	-0.062087893
19	0xbd45d30a	-0.048296966
20	0xbd6ab430	-0.057300746
21	0xbd4e1710	-0.050314963
22	0xbd6a0a6c	-0.057138845
23	0xbd0f72db	-0.035021644
24	0xbd85a973	-0.065264605
25	0xbcb94d8e	-0.022619989
26	0x3abc2e93	0.0014357142
27	0xbde00c22	-0.10939814
28	0xbd467f08	-0.04846099
29	0xbdbd55aa	-0.09244855
30	0xbdac912c	-0.08426127
31	0xbd23b97d	-0.039971817
32	0xbd0e9954	-0.034814194
33	0xbdf9b277	-0.121922426
34	0xbd6041c4	-0.05475022
35	0xbda72b44	-0.08162549
36	0xbd6a074e	-0.057135873
37	0xbb64aa7a	-0.003489165
38	0xbccf0fb3	-0.02527604
39	0xbcd9cfa5	-0.02658827
40	0x3ba59e7f	0.0050542946
41	0xbc20a21b	-0.009804274
42	0xbd92d97b	-0.07170387
43	0xbc134d33	-0.008990574
44	0xbcd495fa	-0.02595042
45	0xbd24fb97	-0.040278997
46	0xbcc47a7e	-0.02398419
47	0xbd2ba489	-0.04190496
48	0xbd055dc6	-0.032560132
49	0xbcca65f5	-0.02470682
50	0xbc80243c	-0.015642278
51	0xbd57332e	-0.052539043
52	0xbca11583	-0.019663578
53	0xbcc90980	-0.024540663
54	0xb8212f9b	-3.8429727e-05
55	0xb81e4ce4	-3.7741745e-05
56	0xb8165209	-3.5839188e-05
57	0xb8224a83	-3.8693204e-05
58	0xb8219364	-3.852266e-05
59	0xb81b728a	-3.7061553e-05
60	0xb81ff39e	-3.813544e-05
61	0xb820f13c	-3.837164e-05
62	0xb81c82d5	-3.7315145e-05
63	0xb8a70986	-7.9649544e-05
64	0xb8a4c78f	-7.8573e-05
65	0xb89df800	-7.532537e-05
66	0xb8a692bd	-7.942829e-05
67	0xb8a5fe97	-7.915234e-05
68	0xb8a08c3b	-7.6555145e-05
69	0xb8a3a8dd	-7.803899e-05
70	0xb8a4465d	-7.8332356e-05
71	0xb8a00dc0	-7.631956e-05
72	0xb82059e2	-3.8230683e-05
73	0xb81e0ee8	-3.7684018e-05
74	0xb814d0a1	-3.548025e-05
75	0xb81ccdd1	-3.738498e-05
76	0xb81c936b	-3.7330592e-05
77	0xb814d1a7	-3.5481204e-05
78	0xb8151596	-3.554447e-05
79	0xb815fb90	-3.5758654e-05
80	0xb80fc975	-3.428148e-05
81	0x0000321b	1.7974e-41
82	0x80000cd6	-4.605e-42
83	0x0000809f	4.614e-41
84	0x80003375	-1.846e-41
85	0x00004fda	2.8645e-41
86	0x00004538	2.4831e-41
87	0x0000179d	8.471e-42
88	0x80000ad6	-3.887e-42
89	0x0000ab09	6.1356e-41
90	0x80002b76	-1.5591e-41
91	0x000047fb	2.5822e-41
92	0x00002c9b	1.6001e-41
93	0x800066e8	-3.6916e-41
94	0x00009c78	5.613e-41
95	0x800007e8	-2.836e-42
96	0x80002f9f	-1.7083e-41
97	0x000041b3	2.3568e-41
98	0x000046a5	2.5342e-41
99	0x800018b4	-8.862e-42
100	0x8000404c	-2.3065e-41
101	0x80001cdc	-1.0353e-41
102	0x80000d6f	-4.819e-42
103	0x80005d5c	-3.3491e-41
104	0x800000d8	-3.03e-43
105	0x80003e6a	-2.239e-41
106	0x00000733	2.583e-42
107	0x80007a06	-4.3774e-41
108	0x3ddb7a78	0.107167184
109	0x3baea00c	0.0053291377
110	0x3da45de2	0.08025719
111	0x3ccec8cf	0.025242237
112	0xbd32edbc	-0.043683752
113	0x3c7c05b2	0.015382217
114	0x3d20c0db	0.03924642
115	0xbb753d76	-0.0037420667
116	0x3d1fe2e0	0.039034724
117	0x3dbd3de2	0.09240319
118	0xb9f0ea7e	-0.00045951077
119	0x3cc2b9e8	0.023770288
120	0xb9d20bf5	-0.0004006323
121	0xbd82fe2c	-0.06396136
122	0xbd2efc16	-0.042720877
123	0x3c20e9c8	0.009821363
124	0xbd8cbcd7	-0.06871956
125	0xbd34c35d	-0.044131625
126	0x3d95b840	0.073105335
127	0xb985208c	-0.00025391986
128	0x3d7a6d48	0.061139375
129	0xbb409c87	-0.0029390173
130	0xbcfefa41	-0.03112519
131	0x3cbe70ce	0.023247149
132	0x3ca2080d	0.01977923
133	0xbc895c12	-0.016767535
134	0x3c8437b2	0.016139839
135	0xadbc3ce8	-2.1400173e-11
136	0xae035018	-2.985709e-11
137	0xae3b5f82	-4.2603705e-11
138	0xad877afc	-1.5402339e-11
139	0xadbc48d0	-2.140546e-11
140	0xae10cebc	-3.2925426e-11
141	0xad2a3175	-9.674363e-12
142	0xad62a32d	-1.2882845e-11
143	0xadb96d14	-2.1080505e-11
144	0xae251f95	-3.7544707e-11
145	0xae57b620	-4.90471e-11
146	0xae95d3eb	-6.81338e-11
147	0xae1c500c	-3.554139e-11
148	0xae47b901	-4.5411678e-11
149	0xae9083e4	-6.57179e-11
150	0xadfa0393	-2.8423297e-11
151	0xae177587	-3.443781e-11
152	0xae635b88	-5.169512e-11
153	0xaa8b56a4	-2.475148e-13
154	0xaade5c45	-3.9499147e-13
155	0xab4024bc	-6.826308e-13
156	0xaab279b6	-3.1703606e-13
157	0xab079229	-4.816447e-13
158	0xab71c317	-8.589114e-13
159	0xaaa2f8fd	-2.894975e-13
160	0xaae137b0	-4.000667e-13
161	0xab4f740b	-7.3702215e-13
162	0xb22b8108	-9.982848e-09
163	0xb292cbac	-1.7089256e-08
164	0xb28c637f	-1.634339e-08
165	0xb2306404	-1.0267289e-08
166	0xb2a014a2	-1.8635834e-08
167	0xb29bc55a	-1.813412e-08
168	0xb2159e6b	-8.7089616e-09
169	0xb2862fff	-1.562148e-08
170	0xb27eecdf	-1.4838604e-08
171	0xb2272c95	-9.730816e-09
172	0xb2901622	-1.6773871e-08
173	0xb290ddf1	-1.6864734e-08
174	0xb2298e03	-9.869384e-09
175	0xb29b02d3	-1.804566e-08
176	0xb29ee941	-1.8499692e-08
177	0xb20ffdcb	-8.381401e-09
178	0xb2814e39	-1.5053148e-08
179	0xb2801afe	-1.4913436e-08
180	0xb03fc0c2	-6.975932e-10
181	0xb0c5266f	-1.434456e-09
182	0xb0d2de0a	-1.5342618e-09
183	0xb04e90cf	-7.514815e-10
184	0xb0e2d28c	-1.6503505e-09
185	0xb0fe8893	-1.8519749e-09
186	0xb0319602	-6.46054e-10
187	0xb0bd965c	-1.3794295e-09
188	0xb0ccd325	-1.4902964e-09
189	0xb0b69455	-1.3284401e-09
190	0xb11ec22c	-2.31024e-09
191	0xb10e6ccb	-2.0725561e-09
192	0xb09e2f95	-1.1509537e-09
193	0xb104daae	-1.9332833e-09
194	0xb0e31078	-1.6521104e-09
195	0xb01ed90f	-5.7788524e-10
196	0xb0852dde	-9.69006e-10
197	0xb055b760	-7.774954e-10
198	0xb0b93cc2	-1.347779e-09
199	0xb11c8777	-2.277799e-09
200	0xb10b9d68	-2.0316637e-09
201	0xb09dc73a	-1.1479877e-09
202	0xb10135ee	-1.8802626e-09
203	0xb0dbc442	-1.5990127e-09
204	0xb01ec188	-5.775509e-10
205	0xb080fa8f	-9.384439e-10
206	0xb04e9009	-7.514705e-10
207	0xaf9b948e	-2.829989e-10
208	0xb009d949	-5.014909e-10
209	0xafe53c92	-4.1697895e-10
210	0xaf646675	-2.0772879e-10
211	0xafc5d91f	-3.5988365e-10
212	0xaf9ae0ca	-2.817216e-10
213	0xaeba37dd	-8.468224e-11
214	0xaf1dc321	-1.434839e-10
215	0xaee640d3	-1.0470704e-10
216	0xbceb308c	-0.028709672
217	0x3b0335a1	0.002002098
218	0xbd03b23c	-0.0321524
219	0xbbf3e009	-0.0074424786
220	0xbb02e52c	-0.0019973023
221	0xbc9a9ff7	-0.018875105
222	0xbc92c6e4	-0.017917104
223	0x3c458da2	0.012057694
224	0x3bf77399	0.007551622
225	0xbccc6493	-0.024950301
226	0xbc1b6a4a	-0.0094857905
227	0xbcbab09e	-0.022789296
228	0x3cce59f3	0.025189376
229	0x3a57b14b	0.0008228018
230	0xbb887f65	-0.0041655772
231	0xbd0999c7	-0.03359392
232	0x3b9238e7	0.0044623497
233	0x3cf16582	0.029467348
234	0xbd2f2e36	-0.04276868
235	0xbd4eea34	-0.050516322
236	0xbd346e50	-0.044050515
237	0xbd6c2352	-0.05765087
238	0xbd7c5119	-0.06160078
239	0xbd56360d	-0.05229764
240	0xbd68b306	-0.056811355
241	0xbd1d3db4	-0.038388923
242	0xbd4fe1a8	-0.050752312
243	0x3d1f4422	0.038883336
244	0x3d768a70	0.060190618
245	0x3d11914c	0.035538957
246	0x3c73eb04	0.014887575
247	0xba2eabda	-0.0006663181
248	0x3d11600b	0.035491984
249	0xbda9f81c	-0.08299276
250	0xbd4547ce	-0.04816418
251	0xbd816748	-0.063185275
252	0x3d4a929a	0.049456216
253	0x3d55f251	0.052233044
254	0x3ce6c835	0.028171638
255	0x3a9e8a30	0.0012095626

e_conv1.bias f4 [32]
0	0x3db76840	0.08955431
1	0x3db30ef9	0.0874309
2	0xb7ddcc1b	-2.6440297e-05
3	0x8bfe13a3	-9.786679e-32
4	0x3db8d1c5	0.09024385
5	0xb3113804	-3.381139e-08
6	0xb920c789	-0.00015333122
7	0xb9e476bd	-0.00043576016
8	0x3e19ac65	0.1500717
9	0x3d8cb01f	0.0686953
10	0xbcb57c8b	-0.022154113
11	0x3d75e42b	0.06003205
12	0x8985828a	-3.2141344e-33
13	0xbbab348b	-0.0052247695
14	0x3e333fe7	0.17504846
15	0xb9b543d9	-0.0003457356
16	0xb8a2e113	-7.766685e-05
17	0x3d46e0ac	0.048554108
18	0x3e0bdcec	0.13658494
19	0xba0801f6	-0.00051882805
20	0x3c3ff201	0.011715413
21	0x3e3f1edf	0.1866412
22	0xb5caa910	-1.5099376e-06
23	0x93752617	-3.0942127e-27
24	0xa8593356	-1.20570515e-14
25	0x3d10faf5	0.03539558
26	0xbb12b868	-0.0022387747
27	0x3e5279d8	0.20554292
28	0xba88a8fa	-0.0010426336
29	0x3e2f5d35	0.171254
30	0xbaac8e7b	-0.0013165021
31	0x9634fea2	-1.4620632e-25

e_conv2.weight f4 [32, 32, 3, 3]
0	0xba8421f6	-0.0010080922
1	0x3bbbaf87	0.0057277116
2	0x3caa5319	0.020791577
3	0x3c01313c	0.007885274
4	0x3c19cea8	0.00938765
5	0x3c4b1973	0.012396204
6	0x3c80dd26	0.015730452
7	0x3c22960e	0.009923471
8	0x3b3de7ed	0.002897735
9	0xbc15a3c2	-0.009133281
10	0x3a70232f	0.0009160516
11	0x3c8e09a3	0.01733858
12	0xbc525ace	-0.012839032
13	0xbbef7af2	-0.0073083574
14	0x3b43d5c9	0.0029882065
15	0xba8bf2ea	-0.0010677252
16	0x3b1df489	0.0024102053
17	0x3c2bebf0	0.010493264
18	0xa733e8da	-2.496747e-15
19	0xa6b877b2	-1.2800008e-15
20	0xa52e60a1	-1.5124833e-16
21	0xa7621ec2	-3.1380474e-15
22	0xa6f4693d	-1.6959426e-15
23	0xa5714907	-2.092816e-16
24	0xa79180a9	-4.038508e-15
25	0xa722774b	-2.2546685e-15
26	0xa5b4396b	-3.126393e-16
27	0x80000a8b	-3.782e-42
28	0x0000cdd4	7.3837e-41
29	0x0000b756	6.5769e-41
30	0x0000d4a6	7.6284e-41
31	0x0000806d	4.607e-41
32	0x00009965	5.5028e-41
33	0x000088e4	4.9107e-41
34	0x000021ed	1.217e-41
35	0x00001f04	1.1126e-41
36	0x3c118ae4	0.008883212
37	0x3b8a5c82	0.0042224536
38	0x3ca13d24	0.019682474
39	0x3bf74b49	0.0075468165
40	0xbb8a0f55	-0.0042132535
41	0xbb52bc95	-0.003215586
42	0xb9e633f5	-0.0004390773
43	0xba379e9d	-0.0007004531
44	0x3ced41dc	0.028962068
45	0x8000d66b	-7.6919e-41
46	0x0000ca0e	7.2484e-41
47	0x8000cb20	-7.2868e-41
48	0x8000af09	-6.2791e-41
49	0x0000c9c1	7.2376e-41
50	0x800000f6	-3.45e-43
51	0x8000bc0b	-6.7457e-41
52	0x0000c32b	7.0013e-41
53	0x80000348	-1.177e-42
54	0x00004f4c	2.8446e-41
55	0x8000a525	-5.9243e-41
56	0x00000c6c	4.456e-42
57	0x80005522	-3.054e-41
58	0x80002532	-1.3343e-41
59	0x0000addf	6.2373e-41
60	0x80003f4a	-2.2704e-41
61	0x800045aa	-2.4991e-41
62	0x0000bbc2	6.7355e-41
63	0x00000e5e	5.154e-42
64	0x800059dd	-3.2237e-41
65	0x0000c00d	6.8895e-41
66	0x00007008	4.0189e-41
67	0x00001bd0	9.977e-42
68	0x80004c78	-2.7432e-41
69	0x00007b39	4.4204e-41
70	0x000040f9	2.3308e-41
71	0x800085b5	-4.7965e-41
72	0x3c935c25	0.017988274
73	0x3cd2e7df	0.02574533
74	0x3d088fca	0.033340253
75	0x3cc20ca6	0.023687672
76	0x3c4c082f	0.012453123
77	0x3cd473c7	0.025934113
78	0x3d0f8bff	0.03504562
79	0x3cb17640	0.021662831
80	0x3ca0e5ee	0.019640889
81	0x3c921757	0.017833395
82	0x3be2b6c9	0.0069187623
83	0x3bc134db	0.0058961934
84	0x3c777fca	0.015106151
85	0x3a9431db	0.0011306362
86	0x3c2c2f5e	0.01050934
87	0x3ce9ef4a	0.028556485
88	0x3bf695c7	0.007525179
89	0x3ce41ade	0.027844843
90	0xbc06c4a6	-0.008225596
91	0xb9970b85	-0.00028809547
92	0x38ab3109	8.163049e-05
93	0xbc3ed176	-0.011646619
94	0x3b2a9179	0.002602665
95	0xbbcd6804	-0.006268503
96	0xbb269586	-0.0025418713
97	0x3c514dfd	0.0127749415
98	0x3ba38d30	0.004991196
99	0xbcb6b02c	-0.022300802
100	0xbc33b213	-0.010967749
101	0xba2b74aa	-0.00065405166
102	0xbcaf8849	-0.02142729
103	0xbc24ffa4	-0.010070715
104	0xbba80424	-0.0051274467
105	0xbcee84a5	-0.029115984
106	0xbc9cca8c	-0.01913955
107	0xbc86dd98	-0.016463086
108	0x00002c56	1.5905e-41
109	0x0000b8c4	6.6281e-41
110	0x8000314f	-1.7689e-41
111	0x8001041b	-9.3308e-41
112	0x8000240b	-1.293e-41
113	0x0000ad5c	6.219e-41
114	0x00014451	1.16343e-40
115	0x800136cb	-1.11492e-40
116	0x00012f6e	1.0885e-40
117	0x3d2d0fe2	0.042251475
118	0x3bc8fc9a	0.006133628
119	0xbd6a8307	-0.057253864
120	0x3d072be7	0.033000853
121	0x3bfb25aa	0.007664402
122	0xbd122523	-0.035679948
123	0x3d43530f	0.047686633
124	0x3bae7055	0.0053234496
125	0xbd76ad34	-0.060223773
126	0xbcbfb6d0	-0.023402601
127	0xbc6a1cb0	-0.014289066
128	0xbc008f8e	-0.007846726
129	0xbc848f83	-0.016181713
130	0xbc3cb044	-0.011516634
131	0x3a56dcae	0.0008196336
132	0xbc80e412	-0.015733752
133	0xbc16002f	-0.009155317
134	0xbd28dfb8	-0.04122898
135	0x39ea662f	0.0004470809
136	0x39e847b6	0.00044303917
137	0x39e53b2e	0.00043722376
138	0x39ec3102	0.0004504994
139	0x39eab45b	0.00044766333
140	0x39e7bcdd	0.00044200468
141	0x39ec1758	0.0004503082
142	0x39eb0594	0.0004482685
143	0x39e7e053	0.00044226888
144	0x8130af3d	-3.2451822e-38
145	0x818064a7	-4.7164203e-38
146	0x817a6668	-4.599122e-38
147	0x8042998a	-6.116222e-39
148	0x80e97568	-2.1439788e-38
149	0x80eb3d50	-2.1603336e-38
150	0x00076e15	6.82338e-40
151	0x8030bdf7	-4.47625e-39
152	0x802bd790	-4.026256e-39
153	0x3b096062	0.002096199
154	0xbc06b2f0	-0.008221373
155	0xbcd69163	-0.026192373
156	0x3c5360c7	0.0129014915
157	0xbc139c89	-0.009009489
158	0xbcab40e7	-0.020904971
159	0x3ce32746	0.027728688
160	0xbb84a8e5	-0.004048454
161	0xbc013329	-0.007885733
162	0xbcbd80cc	-0.023132704
163	0xbc97f51a	-0.01854949
164	0xbc122108	-0.008919008
165	0xbcaecc63	-0.021337694
166	0xbbfcb999	-0.0077125547
167	0xbc927b76	-0.017881136
168	0xbc8f6e59	-0.017508673
169	0xbcb7ebaf	-0.02245125
170	0xbd25170d	-0.040305186
171	0x170cca82	4.549204e-25
172	0x173c9bf5	6.094292e-25
173	0x16f770bb	3.9976145e-25
174	0x16fa212a	4.0410608e-25
175	0x1746c385	6.422403e-25
176	0x1719a403	4.964398e-25
177	0x172102aa	5.202527e-25
178	0x178ac5fd	8.96802e-25
179	0x17500c8b	6.7224256e-25
180	0xbaaabce8	-0.0013026269
181	0x3a684fee	0.0008862008
182	0x3b3c3943	0.0028720654
183	0xbbc973cd	-0.0061478377
184	0xbb9f02a3	-0.0048526092
185	0xbb92c3ff	-0.004478931
186	0xbcc004ef	-0.023439853
187	0xbcbdde7b	-0.023177376
188	0xbcbfacc0	-0.023397803
189	0xbcb97b25	-0.022641728
190	0xbc11e789	-0.0089053
191	0xbce37085	-0.027763614
192	0x3b672549	0.0035270026
193	0x3c14201e	0.00904086
194	0xbc3297df	-0.010900467
195	0xbc908030	-0.01763925
196	0xbcba6316	-0.022752326
197	0xbcc1b7c8	-0.023647204
198	0xb28383fe	-1.531043e-08
199	0xb27d2e98	-1.4737132e-08
200	0xb235904e	-1.0568398e-08
201	0xb29a890f	-1.7990287e-08
202	0xb2950025	-1.7345949e-08
203	0xb268aa7f	-1.3542944e-08
204	0xb29ae849	-1.803359e-08
205	0xb29301ca	-1.7113866e-08
206	0xb25e8c85	-1.2954051e-08
207	0x0000d153	7.5091e-41
208	0x0000f791	8.881e-41
209	0x8000d4a9	-7.6288e-41
210	0x800097ce	-5.4457e-41
211	0x80008308	-4.7005e-41
212	0x800077b2	-4.2939e-41
213	0x80009023	-5.1707e-41
214	0x00011cf8	1.02228e-40
215	0x80009bfc	-5.5957e-41
216	0x80003c55	-2.1643e-41
217	0x80014db7	-1.19714e-40
218	0x80001b16	-9.717e-42
219	0x8000d1ec	-7.5306e-41
220	0x80014c47	-1.19199e-40
221	0x8001679c	-1.29004e-40
222	0x80018b9a	-1.41915e-40
223	0x00004856	2.5949e-41
224	0x0001225b	1.0416e-40
225	0xbb1e0935	-0.0024114375
226	0x3b97a1b0	0.004627429
227	0x3c7dab04	0.015482668
228	0xbb903cdb	-0.004401786
229	0x3a85b567	0.0010201157
230	0x3c2835ca	0.010266731
231	0x3a0b0e3a	0.0005304549
232	0x3baf8124	0.005355971
233	0x3c658745	0.014009302
234	0x3c05559f	0.008138089
235	0x3c10c128	0.008835115
236	0xbb51de78	-0.003202347
237	0x3c2cc02a	0.010543862
238	0x3c2938d3	0.010328489
239	0x3c69ae58	0.014262758
240	0xbc934fdd	-0.017982418
241	0xbc8e6b5e	-0.017385181
242	0xbb02b7a9	-0.0019945896
243	0x3d076e32	0.033064075
244	0x3caca523	0.021074837
245	0x3c8842c8	0.016633406
246	0x3c6654fe	0.01405835
247	0x3cdcd545	0.026957164
248	0x3c0d265a	0.008615101
249	0x3ce8a2a8	0.028397873
250	0x3c8f64d8	0.01750414
251	0xbc08fdf0	-0.008361325
252	0xbc92d631	-0.0179244
253	0xbcce7305	-0.02520133
254	0xbd6182d1	-0.055056397
255	0x3c8c54ae	0.017130222

e_conv2.bias f4 [32]
0	0x3c8838c0	0.016628623
1	0xbb335b20	-0.0027367547
2	0xb7562b0b	-1.2765416e-05
3	0xbca9647c	-0.020677797
4	0x3bbfdbef	0.0058550755
5	0xbceafe21	-0.028685631
6	0xbca04249	-0.019562857
7	0xbcc29163	-0.023750966
8	0x3caf076e	0.021365847
9	0x3cf2228e	0.029557493
10	0x3d719e43	0.05898882
11	0xb8878882	-6.462728e-05
12	0xba3d51ab	-0.00072219473
13	0xbc45a1ed	-0.012062532
14	0xbb319ab1	-0.002710026
15	0xa9fb36b9	-1.1156132e-13
16	0x3d022397	0.031772222
17	0xbc867e78	-0.016417727
18	0xbc31dd84	-0.010856036
19	0x3c704d75	0.014666905
20	0x3d26b547	0.040700223
21	0x3b0073d2	0.0019600284
22	0x3ca393dc	0.019967966
23	0xb95e2036	-0.0002118357
24	0xbbedfe33	-0.007262969
25	0x924f1155	-6.5339046e-28
26	0x3cee37ce	0.029079344
27	0x3d29db23	0.04146875
28	0x3bb541c9	0.005531524
29	0x3bd3abb6	0.0064596785
30	0x3c36ecec	0.011164885
31	0xbbdd6328	-0.006756205

e_conv3.weight f4 [32, 32, 3, 3]
0	0xbb87503c	-0.0041294377
1	0x3c4f63d8	0.012658082
2	0x3d35221f	0.044221994
3	0xbc9b5142	-0.018959645
4	0x38722f8b	5.7741574e-05
5	0x3c392f66	0.011302805
6	0xbcbec98d	-0.023289466
7	0xbba4cf80	-0.0050296187
8	0xbc001d11	-0.00781943
9	0x38366aea	4.3491753e-05
10	0x385301db	5.030805e-05
11	0x384f1b18	4.937788e-05
12	0x38416b4b	4.611471e-05
13	0x3868dc30	5.5518176e-05
14	0x3863784e	5.423306e-05
15	0x38624180	5.39436e-05
16	0x3882cfba	6.237575e-05
17	0x3881708c	6.172163e-05
18	0x000022bd	1.2462e-41
19	0x8000d125	-7.5027e-41
20	0x00006440	3.5963e-41
21	0x00004623	2.516e-41
22	0x0000c8df	7.2059e-41
23	0x0000af27	6.2833e-41
24	0x000055ee	3.0826e-41
25	0x800037fb	-2.0082e-41
26	0x0000cce4	7.3501e-41
27	0x3d70f16c	0.058823988
28	0x3c81d16d	0.015846932
29	0xba7e041e	-0.00096899446
30	0x3c8bc9f5	0.017064074
31	0xbbe0670d	-0.006848222
32	0xbc2af089	-0.010433325
33	0x3c5ca0a4	0.013466034
34	0xbc18b48c	-0.0093203895
35	0xbcb8768e	-0.022517469
36	0x3d52241a	0.05130396
37	0x3cf910b4	0.030403472
38	0x3d75be70	0.05999607
39	0x3c4abc28	0.0123739615
40	0x3b044b41	0.0020186456
41	0x3ae4937b	0.0017438972
42	0xbcd0c1d5	-0.025483051
43	0xbd1a0a68	-0.03760758
44	0xbd889872	-0.06669702
45	0x3d977b3c	0.07396552
46	0x3cbeec32	0.023305986
47	0xbb21a64e	-0.0024665776
48	0x3cb66408	0.022264495
49	0xba92ecf0	-0.0011209529
50	0xbc051c27	-0.008124388
51	0xbc7dc255	-0.015488227
52	0xbcaefd5f	-0.021361051
53	0xbc2d37ce	-0.010572387
54	0x3dde8c16	0.10866563
55	0x3ca0e025	0.01963813
56	0xbc9749be	-0.01846778
57	0x3d0f88a0	0.035042405
58	0xbb99df90	-0.00469584
59	0xbbb311b2	-0.005464756
60	0xbc3a6955	-0.011377652
61	0xbc9deabf	-0.019276975
62	0x3b88bf0f	0.0041731666
63	0xbe347247	-0.17621718
64	0xbd8eae63	-0.069668554
65	0xbe0465f6	-0.1292952
66	0x3c1b8536	0.009492209
67	0x3d492796	0.049110018
68	0x3ca2e0be	0.019882556
69	0xbc08c7bd	-0.008348403
70	0x3c0241b2	0.007950233
71	0xbc9b1bf1	-0.018934222
72	0x3c147997	0.009062192
73	0x3c32d3f0	0.010914788
74	0x3d384963	0.044991862
75	0x3c166516	0.009179374
76	0x3bbfdec4	0.005855413
77	0x3c247b40	0.010039151
78	0xbbf01e1a	-0.007327807
79	0xbc651b28	-0.013983525
80	0xbd0dbc9a	-0.034603693
81	0x3d20f0df	0.039292213
82	0x3cd0b63d	0.025477523
83	0x3ce8a83c	0.028400533
84	0x3cb3f5c4	0.021967776
85	0x3bb55b4e	0.005534566
86	0x3ba5266d	0.005039981
87	0x3b0c5e88	0.002141865
88	0xbc121487	-0.008916027
89	0xbb80750d	-0.0039202035
90	0x3d06cc58	0.03290972
91	0x3d08583d	0.033287276
92	0x3d97c640	0.0741086
93	0x3c9d738b	0.019220134
94	0x3c91269a	0.017718602
95	0x3c99113e	0.01868498
96	0xbb2e0447	-0.0026552842
97	0xbc3ac09c	-0.011398461
98	0xbd3bc79f	-0.04584467
99	0x80000155	-4.78e-43
100	0x0000386d	2.0242e-41
101	0x80001d02	-1.0406e-41
102	0x80008d6e	-5.0735e-41
103	0x80008735	-4.8503e-41
104	0x0000b50b	6.4946e-41
105	0x0000a679	5.9719e-41
106	0x80008ae2	-4.9822e-41
107	0x0000763f	4.2419e-41
108	0x35cb425a	1.514399e-06
109	0x35c3a876	1.4577661e-06
110	0x35554361	7.944673e-07
111	0x35663f9d	8.5774246e-07
112	0x35679049	8.626417e-07
113	0x34fa43db	4.66155e-07
114	0x3500dcf8	4.800527e-07
115	0x34ef8f18	4.4621333e-07
116	0x346879d0	2.1650999e-07
117	0x3d553cb9	0.052059863
118	0x3caece77	0.021338684
119	0x3c08af62	0.008342596
120	0x3c5b0671	0.013368235
121	0xbb19f012	-0.002348904
122	0xbc741673	-0.01489793
123	0xbd14eeba	-0.03636048
124	0xbd469615	-0.048482973
125	0xbd838cc2	-0.06423332
126	0xb48d683d	-2.633914e-07
127	0xb39e27d4	-7.364693e-08
128	0xb1c7c135	-5.8136274e-09
129	0xb3cb5bb8	-9.469608e-08
130	0xb2d472e1	-2.4732289e-08
131	0xb117ac10	-2.2071198e-09
132	0xb33662de	-4.2465096e-08
133	0xb25e1dfa	-1.2928917e-08
134	0xb06b558b	-8.5614066e-10
135	0x8001a704	-1.5175e-40
136	0x800190c8	-1.43773e-40
137	0x80019638	-1.45724e-40
138	0x80012b64	-1.07401e-40
139	0x00003805	2.0096e-41
140	0x000093c7	5.3013e-41
141	0x0000258c	1.3469e-41
142	0x80001c38	-1.0123e-41
143	0x8000c7f8	-7.1735e-41
144	0x3c926c36	0.017873865
145	0xbb922786	-0.004460278
146	0xbb5677b7	-0.0032725164
147	0xbb995800	-0.00467968
148	0xbc8b57f6	-0.017009716
149	0xbc30dc51	-0.010794715
150	0xbbc7c3ca	-0.006096338
151	0xbc8dff25	-0.017333576
152	0xbcd64c0b	-0.026159307
153	0x3d23d7cd	0.040000726
154	0x3c1e0545	0.009644811
155	0xbc2ea3ae	-0.0106591415
156	0x3c40067c	0.011720296
157	0x39950e20	0.0002843002
158	0xbc390bca	-0.011294315
159	0xbd157f96	-0.03649863
160	0xbd0dbc17	-0.034603205
161	0xbd373489	-0.044727836
162	0x3ce2793c	0.0276457
163	0x3c4bf03c	0.012447413
164	0x3d11209c	0.03543149
165	0xba8eae74	-0.0010885731
166	0x3a97ff66	0.00115965
167	0x3cb864fb	0.022509089
168	0x3b90c412	0.0044179047
169	0x3b8cecee	0.004300705
170	0x3c7843b5	0.015152861
171	0x3d87d19d	0.066317774
172	0x3c9d38e7	0.019192172
173	0x3cc4e4b2	0.024034832
174	0x3c8f7148	0.017510071
175	0x3b771a65	0.0037704941
176	0x3b803d25	0.003913539
177	0xbbe22f27	-0.0069025937
178	0xbba73975	-0.005103285
179	0xbc130ed8	-0.008975707
180	0x3d39418f	0.045228537
181	0x3cff2d50	0.031149536
182	0x3d38e5bb	0.045140963
183	0x3c44026a	0.011963466
184	0x3a4505f0	0.00075158384
185	0x3b2d8c99	0.0026481508
186	0x3c9597aa	0.018260796
187	0x3bc6f938	0.0060721897
188	0xbbc2701a	-0.0059337737
189	0x3d1a35f9	0.03764913
190	0x3d598b7c	0.05311154
191	0x3d8e325c	0.06943199
192	0x3c87c0a9	0.01657136
193	0x3c0473b2	0.008084225
194	0x3b65107b	0.003495245
195	0x3ca19307	0.019723428
196	0x3b3f4c36	0.0029189712
197	0xbc4fda64	-0.012686346
198	0x3ccef5f6	0.025263768
199	0x3cb3c191	0.021942886
200	0xbad3bf1a	-0.0016154975
201	0x3cbf612f	0.02336177
202	0x3cb0f62d	0.02160176
203	0x3c35435e	0.011063425
204	0x3c966518	0.018358752
205	0x3c92b4aa	0.017908413
206	0x3ca243ab	0.019807657
207	0x000086a6	4.8303e-41
208	0x800031d4	-1.7875e-41
209	0x80000bc4	-4.221e-42
210	0x800054db	-3.044e-41
211	0x8000d722	-7.7175e-41
212	0x00007fb2	4.5808e-41
213	0x0000add1	6.2354e-41
214	0x80007b25	-4.4176e-41
215	0x8000683f	-3.7396e-41
216	0x3cbbcfd4	0.022926249
217	0x3cedb263	0.029015725
218	0x3d0f3543	0.034962904
219	0x3c3410a6	0.010990297
220	0x3c6bd6ae	0.014394445
221	0x3ca93516	0.020655196
222	0x3c934c59	0.017980741
223	0x3c8b561f	0.01700884
224	0x3c76fb1b	0.015074517
225	0x0f2106e5	7.939241e-30
226	0x0ee23d8e	5.5772576e-30
227	0x0e6287f0	2.7922102e-30
228	0x0e8b0dc0	3.4279386e-30
229	0x8e0ceee7	-1.737136e-30
230	0x8e9f8bd5	-3.933118e-30
231	0x8e12b57a	-1.8083267e-30
232	0x8e9176ce	-3.5859665e-30
233	0x8ee3daad	-5.6170398e-30
234	0x3c4dbe49	0.012557575
235	0x3c45f0b0	0.01208131
236	0xbcfea671	-0.031085225
237	0xbc2344bf	-0.009965121
238	0xbb206476	-0.0024473942
239	0xbc1e1ed5	-0.009650906
240	0xbcf523e9	-0.02992435
241	0xbc9c5393	-0.01908282
242	0x3c39d827	0.011343039
243	0x3d6454e3	0.055745017
244	0x3cc22231	0.023697944
245	0x3cf7a1b0	0.030228466
246	0x3bf2bcb1	0.0074077477
247	0xbb436bb2	-0.002981883
248	0x3a412209	0.00073674374
249	0xbbf37a6b	-0.007430365
250	0xbbb7a60e	-0.005604512
251	0xbc00c7e1	-0.007860155
252	0xbcfe3a57	-0.031033678
253	0xbbb82945	-0.005620154
254	0xbc9e3aad	-0.019315088
255	0xbcba2907	-0.022724641

e_conv3.bias f4 [32]
0	0x3d005173	0.031327676
1	0x94c25f80	-1.9626662e-26
2	0x3bb03983	0.0053779497
3	0x3cbbbcb5	0.022917131
4	0xb5c35cf7	-1.4555688e-06
5	0x3c2a72e2	0.010403367
6	0x3ccc3394	0.024926938
7	0x3c5dc47b	0.013535614
8	0x3aa300ae	0.0012436116
9	0x3d409602	0.04701806
10	0xba7844e4	-0.0009470715
11	0xb61a15f1	-2.296056e-06
12	0xbc9b32e7	-0.01894517
13	0x93b8a779	-4.661327e-27
14	0x3d1425ff	0.03616905
15	0x3ca879ff	0.020565985
16	0x3c34906f	0.011020764
17	0x9c621e35	-7.481617e-22
18	0xbc44db06	-0.01201511
19	0xb7d06e2b	-2.4846833e-05
20	0xbd582bf2	-0.052776285
21	0xba89b69f	-0.0010506696
22	0x3c41d6c0	0.011830986
23	0x3cb46516	0.022020858
24	0xbc12659a	-0.0089353565
25	0xbbb16c7b	-0.005414543
26	0xbbcb8737	-0.006211187
27	0x3c16a924	0.0091956
28	0xbc40f2fe	-0.011776684
29	0xbc853d91	-0.016264709
30	0x3b35bc26	0.0027730553
31	0x3cf85238	0.030312642

e_conv4.weight f4 [32, 32, 3, 3]
0	0xbd9a0185	-0.07519821
1	0xbd0f8e4f	-0.035047825
2	0xbdab018e	-0.08349906
3	0xbbfbf9f7	-0.0076897102
4	0xb9f649ac	-0.00046975666
5	0xbc164fe3	-0.00917432
6	0xbc9dde75	-0.019271115
7	0x3afb3b8e	0.0019167529
8	0xbb20d1ae	-0.0024539041
9	0x93ba1bf9	-4.6980584e-27
10	0x93c19209	-4.886405e-27
11	0x93e259f2	-5.7139114e-27
12	0x91871b83	-2.13162e-28
13	0x91cc0621	-3.2189302e-28
14	0x92c36db4	-1.2333274e-27
15	0x13b7b859	4.6377475e-27
16	0x13b5fea1	4.5941907e-27
17	0x138c6e15	3.5449518e-27
18	0xbc9dec59	-0.019277738
19	0xbcb1541d	-0.021646554
20	0xbdb056f0	-0.08610332
21	0xb7fb8962	-2.9985506e-05
22	0x3c0da872	0.0086461175
23	0xbb9f819c	-0.0048677456
24	0x3be5a40a	0.0070080804
25	0x3be03dc7	0.006843302
26	0x3d02d587	0.031941917
27	0xbcc0171b	-0.023448518
28	0x3a6d4375	0.00090508844
29	0x3ca69576	0.02033494
30	0xbb9fe25c	-0.004879279
31	0x3b13314b	0.00224598
32	0x3c00564f	0.007833078
33	0xbb0738da	-0.0020633251
34	0x3c3de447	0.01159007
35	0x3d1bf899	0.038078878
36	0x0000c1eb	6.9565e-41
37	0x8000b949	-6.6468e-41
38	0x800024e0	-1.3228e-41
39	0x0000c482	7.0494e-41
40	0x8000c20b	-6.961e-41
41	0x00005015	2.8728e-41
42	0x00005d17	3.3394e-41
43	0x80000ca2	-4.532e-42
44	0x0000590a	3.1941e-41
45	0xbd9c6c9f	-0.07637905
46	0xbd213589	-0.039357696
47	0xbd6bd318	-0.05757436
48	0xbb5141d1	-0.0031930099
49	0x3b208ee3	0.002449923
50	0xbbda3b2d	-0.0066598863
51	0x3d3af93d	0.04564785
52	0x3b946e7e	0.0045297733
53	0xbbcf9edc	-0.006336076
54	0x3ca55a24	0.020184584
55	0x3d362ddc	0.04447733
56	0x3df8ee45	0.12154821
57	0x3b88c878	0.0041742884
58	0x38cf22ab	9.8769866e-05
59	0x3beca0a2	0.0072212974
60	0x3e0edef5	0.13952239
61	0x3d3928e1	0.045205
62	0x3c1894d1	0.009312824
63	0xbc7afc31	-0.015318916
64	0xbb8981cc	-0.004196381
65	0x3c1d9cce	0.009619905
66	0x39051d82	0.00012694861
67	0x3ab3efaf	0.0013728047
68	0x3c400669	0.011720278
69	0xbb035634	-0.0020040395
70	0x3c2c610f	0.010521187
71	0x3d13eaa0	0.036112428
72	0xbcf9aa78	-0.030476794
73	0xbc24f636	-0.010068467
74	0xbd241c0b	-0.040065806
75	0x3c72e79c	0.014825728
76	0x3cbccc40	0.023046613
77	0x3c545a1d	0.012960938
78	0x3d7b76ae	0.06139248
79	0x3d05be4e	0.03265219
80	0x3cec09c4	0.02881325
81	0xbd57e370	-0.052707136
82	0xbca98967	-0.020695401
83	0xbcf4bae8	-0.02987428
84	0xbb2ed0e6	-0.0026674806
85	0x3bd28ff8	0.006425854
86	0x3b8653e4	0.004099356
87	0x3cb22827	0.021747662
88	0x3c8c9862	0.017162506
89	0x3cbf1b19	0.02332835
90	0x30c536f7	1.4349258e-09
91	0x310e97d6	2.0750028e-09
92	0x31da9f84	6.36277e-09
93	0xb00da96d	-5.153627e-10
94	0xaf3b3577	-1.7026545e-10
95	0xaf32664d	-1.622535e-10
96	0xb020a1fd	-5.843786e-10
97	0xaf1e40d2	-1.4393045e-10
98	0xae8e95c3	-6.4840154e-11
99	0x80007ef5	-4.5544e-41
100	0x00005daf	3.3607e-41
101	0x00004803	2.5833e-41
102	0x00004f77	2.8507e-41
103	0x8000badf	-6.7037e-41
104	0x80005ac6	-3.2563e-41
105	0x80001933	-9.04e-42
106	0x0000c44d	7.042e-41
107	0x80004c51	-2.7377e-41
108	0xbd6f5d9f	-0.058438893
109	0xbcbfef0c	-0.023429416
110	0xbd05626d	-0.03256457
111	0xbada082c	-0.0016634515
112	0x3c1025c4	0.0087980665
113	0x3c0256e4	0.007955287
114	0xbb5effd9	-0.0034027009
115	0x3bb530e9	0.005529512
116	0x3c9fb390	0.019494802
117	0x000057ba	3.147e-41
118	0x80011a8c	-1.01359e-40
119	0x000025cb	1.3558e-41
120	0x80004848	-2.593e-41
121	0x8000ed76	-8.5185e-41
122	0x000011ce	6.387e-42
123	0x0000f2d3	8.7109e-41
124	0x0000b257	6.3976e-41
125	0x8000c3b5	-7.0206e-41
126	0xbc9f705c	-0.019462757
127	0xbcb5d644	-0.022196896
128	0xbd04a77d	-0.03238629
129	0x3b3ed117	0.0029116326
130	0xbb185edc	-0.00232499
131	0xbb829503	-0.0039850487
132	0x3d53e227	0.051729348
133	0x3d23a6ab	0.03995387
134	0x3d2f2ce5	0.042767424
135	0x3d547b64	0.051875487
136	0x3d2b8d44	0.04188277
137	0x3db37b26	0.08763723
138	0x3bbf36db	0.0058353967
139	0x3be8661d	0.007092251
140	0x3c70219a	0.014656449
141	0x3cc646b5	0.024203638
142	0x3cb1fdd7	0.021727486
143	0x3cf78b97	0.030217929
144	0xbcb41c76	-0.021986227
145	0xbc0ae5c5	-0.008477633
146	0x3cc53e32	0.024077509
147	0xbc475652	-0.012166576
148	0xbaedb671	-0.0018136037
149	0x3bad8b40	0.005296141
150	0xbc884af6	-0.016637307
151	0xbbb2e16e	-0.005459002
152	0xbd1d6030	-0.03842181
153	0x0001a862	1.5224e-40
154	0x00018725	1.40316e-40
155	0x8000273c	-1.4075e-41
156	0x000054d2	3.0428e-41
157	0x80010762	-9.4484e-41
158	0x00000b33	4.018e-42
159	0x8000b921	-6.6412e-41
160	0x000099fe	5.5242e-41
161	0x00012436	1.04826e-40
162	0xbcd345e2	-0.025790159
163	0xbc759eda	-0.014991486
164	0xbcb4174f	-0.02198377
165	0xba7fe0f9	-0.00097610016
166	0x3bbb92d6	0.0057242913
167	0x3b527537	0.0032113323
168	0xbc1d8e2a	-0.009616414
169	0x3957e363	0.00020588706
170	0x3c0aa386	0.008461839
171	0x8000c50d	-7.0689e-41
172	0x0000beec	6.849e-41
173	0x80001685	-8.078e-42
174	0x00005cce	3.3292e-41
175	0x00008627	4.8125e-41
176	0x00000c00	4.305e-42
177	0x0000530e	2.9794e-41
178	0x0000461b	2.5149e-41
179	0x00001b39	9.766e-42
180	0xbd8b7c75	-0.06810848
181	0xbd1557e9	-0.03646079
182	0xbd5a1ddb	-0.05325113
183	0x3b7106d7	0.0036777759
184	0x3c97dc18	0.018537566
185	0x3c52ea6e	0.012873275
186	0x3d303c6b	0.04302637
187	0x3cd9e5ea	0.02659889
188	0x3cac134b	0.021005293
189	0x29500866	4.6192562e-14
190	0xa92b4f41	-3.803837e-14
191	0xaa078cfc	-1.2039322e-13
192	0xaa24b726	-1.4629668e-13
193	0xab06a3c2	-4.7833623e-13
194	0xab4d4f7a	-7.2940926e-13
195	0x2b8a81b4	9.84149e-13
196	0x29fda66b	1.1264326e-13
197	0xab90a762	-1.0278273e-12
198	0xbd5eca73	-0.05439229
199	0xbc96b76e	-0.018398013
200	0x3c67eb44	0.014155213
201	0xbca1b47b	-0.01973938
202	0xbb84f282	-0.0040572295
203	0x3b8af7ca	0.0042409645
204	0xbcc741d6	-0.024323385
205	0xbc18fb9f	-0.009337335
206	0xbd3a94db	-0.045552116
207	0x3d266c31	0.040630523
208	0xbcb4727c	-0.022027247
209	0xbdccd46a	-0.10001452
210	0x3c6c28f9	0.0144140655
211	0x3c2aa372	0.010414945
212	0x3be48ddb	0.0069749183
213	0xbda40700	-0.08009148
214	0xbad38829	-0.0016138601
215	0x3d050f8a	0.032485522
216	0xbc8a5861	-0.016887845
217	0xb9faa6d1	-0.00047808004
218	0x3d305059	0.043045375
219	0xbbc5e245	-0.0060389363
220	0x3b03cdda	0.002011171
221	0x3c2eff00	0.010680914
222	0x3b6cd20e	0.0036135945
223	0x3b8f6ab5	0.004376734
224	0xbcd85e03	-0.026412016
225	0x3bcd1e03	0.006259681
226	0x3c80bbc0	0.015714526
227	0x3cc8dbb6	0.024518829
228	0x3c0c2caf	0.008555575
229	0x3c2c2166	0.01050601
230	0x3c3b359e	0.011426358
231	0x3d97d992	0.07414545
232	0x3d454bce	0.048167996
233	0x3d965bbb	0.07341715
234	0xbd4b2506	-0.049595855
235	0xbd32069e	-0.043463342
236	0xbd9462b8	-0.072453916
237	0xbb9c491d	-0.004769458
238	0x3a1446d9	0.0005656309
239	0xbc16b625	-0.0091987
240	0xbbbde715	-0.0057953694
241	0xbc288a00	-0.010286808
242	0xbc71a2be	-0.014748273
243	0xbcae9689	-0.021312015
244	0x3c04736f	0.008084162
245	0x3ce2e2d6	0.027696054
246	0xbc46c590	-0.0121320635
247	0xba742d07	-0.0009314571
248	0x3bcbc39c	0.006218387
249	0xbce8fb35	-0.028440097
250	0xb96d36db	-0.00022622517
251	0x3ca66529	0.020311909
252	0xbcb986bb	-0.022647252
253	0xbca3df34	-0.020003892
254	0xbd42366e	-0.04741519
255	0x3c71ce3d	0.014758644

e_conv4.bias f4 [32]
0	0x3d59abf4	0.053142503
1	0xb991356e	-0.00027696363
2	0x3c03c15e	0.008041708
3	0x3cd733c6	0.026269805
4	0xbbe6956f	-0.007036857
5	0xbc87f80d	-0.016597772
6	0xbbe9c323	-0.007133858
7	0x3c8dd948	0.017315522
8	0xbd2b77c8	-0.04186228
9	0xbbdc7f31	-0.0067290296
10	0xbaf9098f	-0.0019000041
11	0xbb803c80	-0.003913462
12	0xbadd5149	-0.0016885187
13	0x3d004483	0.031315338
14	0x940c5284	-7.084467e-27
15	0x3c3e2cf2	0.0116073955
16	0xb83a538f	-4.4423676e-05
17	0xbce2500b	-0.027626058
18	0x3d190376	0.037356816
19	0xaebc1c09	-8.55423e-11
20	0xb00550f8	-4.850018e-10
21	0x3d2232a7	0.039599087
22	0x3c00f074	0.0078698285
23	0x3c19e8d8	0.009393893
24	0xac2bf8ad	-2.4438604e-12
25	0x3c80bc5c	0.015714817
26	0x3cb19fb2	0.021682594
27	0xbc76db90	-0.015066996
28	0x3d19ffb2	0.037597366
29	0x3c29453c	0.010331448
30	0xa455a62e	-4.6327772e-17
31	0x94a27b66	-1.6406492e-26

e_conv5.weight f4 [32, 64, 3, 3]
0	0xb428af54	-1.5710003e-07
1	0xb4608a33	-2.0911902e-07
2	0xb49f8b3a	-2.9717359e-07
3	0xb40e811f	-1.3271755e-07
4	0xb445fb9c	-1.843859e-07
5	0xb492c44a	-2.7337438e-07
6	0xb4170da5	-1.4067935e-07
7	0xb44d48c5	-1.9118586e-07
8	0xb498eb1a	-2.8483265e-07
9	0x80010da1	-9.6725e-41
10	0x80002ffb	-1.7212e-41
11	0x00013bdb	1.13308e-40
12	0x000089a3	4.9375e-41
13	0x0000df70	8.0154e-41
14	0x800152cc	-1.21537e-40
15	0x8000d9db	-7.8152e-41
16	0x00012fbc	1.0896e-40
17	0x8001e481	-1.73807e-40
18	0x2cc8a232	5.702349e-12
19	0xad36d5cb	-1.0392974e-11
20	0xae6d750e	-5.3991527e-11
21	0x2d0ce8d8	8.00978e-12
22	0xad2d21b4	-9.841395e-12
23	0xae80fca1	-5.865642e-11
24	0x2cdda73d	6.299765e-12
25	0xad6b96d6	-1.3391696e-11
26	0xae99da57	-6.9964194e-11
27	0xb41e6ba2	-1.4754053e-07
28	0xb4460a0e	-1.8443845e-07
29	0xb4816ac3	-2.4105802e-07
30	0xb4543268	-1.9762376e-07
31	0xb480e978	-2.401173e-07
32	0xb4a35471	-3.0422555e-07
33	0xb489e936	-2.5687922e-07
34	0xb4a3aab4	-3.048532e-07
35	0xb4cb59c1	-3.7877e-07
36	0x8000a6c9	-5.9831e-41
37	0x8000d2c3	-7.5607e-41
38	0x8000b2a1	-6.408e-41
39	0x80002115	-1.1868e-41
40	0x0000965d	5.394e-41
41	0x80020111	-1.84054e-40
42	0x00021c39	1.93795e-40
43	0x80011004	-9.7581e-41
44	0x800188ef	-1.40958e-40
45	0xadc4fcd4	-2.2394898e-11
46	0xadbd28e3	-2.150497e-11
47	0xadf55eab	-2.7895316e-11
48	0xadf43156	-2.7761498e-11
49	0xade5c644	-2.6122333e-11
50	0xae111e58	-3.2996134e-11
51	0xae310b48	-4.025516e-11
52	0xae216273	-3.6694602e-11
53	0xae437d45	-4.444913e-11
54	0xb6c975ad	-6.003966e-06
55	0xb6b4fc8d	-5.393819e-06
56	0xb6ac31b5	-5.131786e-06
57	0xb6e2133d	-6.7375645e-06
58	0xb6c9f40d	-6.018678e-06
59	0xb6be600c	-5.6736226e-06
60	0xb6f6cd9d	-7.355308e-06
61	0xb6da3023	-6.50251e-06
62	0xb6cb8f5a	-6.0665598e-06
63	0x8002873e	-2.32187e-40
64	0x8001185e	-1.00577e-40
65	0x80005846	-3.1667e-41
66	0x0001abf0	1.53515e-40
67	0x00076e7c	6.82483e-40
68	0x00109c3e	1.525417e-39
69	0x000e969a	1.339723e-39
70	0x0041ab8f	6.030851e-39
71	0x002e92f2	4.277147e-39
72	0xb899ad67	-7.327907e-05
73	0xb8adb513	-8.2830105e-05
74	0xb8c8910c	-9.56376e-05
75	0xb8a91d4e	-8.0640064e-05
76	0xb8ba343c	-8.8789006e-05
77	0xb8d229b4	-0.00010021348
78	0xb8bf6264	-9.1259164e-05
79	0xb8ccb795	-9.761673e-05
80	0xb8e12e8c	-0.00010737506
81	0xb6aa869f	-5.0820668e-06
82	0xb6ca8f45	-6.036748e-06
83	0xb6fe82ab	-7.5850016e-06
84	0xb6c0aede	-5.742403e-06
85	0xb6e033a0	-6.68173e-06
86	0xb70a41f8	-8.2408005e-06
87	0xb6e23a13	-6.7420856e-06
88	0xb6ff404e	-7.6070783e-06
89	0xb7199400	-9.15397e-06
90	0x0001a4e6	1.5099e-40
91	0x0000c7d8	7.169e-41
92	0x80002380	-1.2735e-41
93	0x00013eac	1.14318e-40
94	0x0000d402	7.6054e-41
95	0x000133ee	1.10464e-40
96	0x00006b6c	3.8536e-41
97	0x0000c088	6.9067e-41
98	0x0000cd30	7.3607e-41
99	0x80020f06	-1.8906e-40
100	0x8000b090	-6.3339e-41
101	0x00007db1	4.509e-41
102	0x8000e610	-8.2531e-41
103	0x00004843	2.5923e-41
104	0x8000ec62	-8.4798e-41
105	0x80004804	-2.5834e-41
106	0x8001154b	-9.9474e-41
107	0x0001d352	1.67643e-40
108	0xb432689a	-1.6615596e-07
109	0xb48f36b0	-2.6675616e-07
110	0xb4cf6755	-3.8631939e-07
111	0xb472f303	-2.2626413e-07
112	0xb4b40f13	-3.353858e-07
113	0xb4f83185	-4.622963e-07
114	0xb4af462b	-3.2647344e-07
115	0xb4ee065c	-4.4335582e-07
116	0xb51ae16d	-5.769751e-07
117	0x000085f6	4.8056e-41
118	0x0000a3c8	5.8754e-41
119	0x00013cf2	1.13699e-40
120	0x80006e8e	-3.966e-41
121	0x00010d4a	9.6603e-41
122	0x8001a909	-1.52474e-40
123	0x800109de	-9.5375e-41
124	0x0001171f	1.0013e-40
125	0x800170aa	-1.32252e-40
126	0x1ba46b84	2.7201004e-22
127	0x1e0ba20d	7.39211e-21
128	0x19d681f1	2.2179564e-23
129	0x1c2bd893	5.685907e-22
130	0x1eb5b567	1.9239147e-20
131	0x1b5c2220	1.8209e-22
132	0x1d1797e6	2.0063213e-21
133	0x1fe2091a	9.572978e-20
134	0x1d1d2173	2.079607e-21
135	0xb8a5aac5	-7.8996214e-05
136	0xb8aa3f92	-8.1180726e-05
137	0xb8ab30f0	-8.163031e-05
138	0xb8bade44	-8.910571e-05
139	0xb8bf5c8b	-9.124827e-05
140	0xb8bfa441	-9.1381844e-05
141	0xb8c82fc4	-9.54564e-05
142	0xb8ccc733	-9.764582e-05
143	0xb8cd2db7	-9.783677e-05
144	0xb7835d8e	-1.5659982e-05
145	0xb77b1597	-1.4965793e-05
146	0xb757e53b	-1.28683705e-05
147	0xb78b2394	-1.6586659e-05
148	0xb786eb99	-1.6083754e-05
149	0xb76c536d	-1.408612e-05
150	0xb78c3a9d	-1.6716594e-05
151	0xb78a1959	-1.6462685e-05
152	0xb77674d4	-1.4689944e-05
153	0x0002211e	1.95551e-40
154	0x000205f4	1.85807e-40
155	0x0001f6a7	1.80318e-40
156	0x800052df	-2.9729e-41
157	0x8000652d	-3.6295e-41
158	0x80006cde	-3.9054e-41
159	0x8000862c	-4.8132e-41
160	0x80004cd7	-2.7565e-41
161	0x0001ed1d	1.76896e-40
162	0x97e572e3	-1.482778e-24
163	0x9843b87d	-2.5296302e-24
164	0x98bedca2	-4.933663e-24
165	0x989ff4e7	-4.1347825e-24
166	0x9907a76d	-7.013148e-24
167	0x9984055e	-1.3650648e-23
168	0x996717de	-1.194724e-23
169	0x99cff5c2	-2.1502559e-23
170	0x9a5269e3	-4.3512517e-23
171	0x0000960f	5.3831e-41
172	0x0000d5d2	7.6704e-41
173	0x80010ee6	-9.718e-41
174	0x800040f2	-2.3298e-41
175	0x800157bd	-1.2331e-40
176	0x80015fcf	-1.26205e-40
177	0x8000e2cb	-8.1358e-41
178	0x0000a2a7	5.8349e-41
179	0x8001ca93	-1.64505e-40
180	0xb7b696e9	-2.1766364e-05
181	0xb7d8909a	-2.5816542e-05
182	0xb7f56b0b	-2.9256122e-05
183	0xb7d4ff5d	-2.5391282e-05
184	0xb7f5c41a	-2.9297593e-05
185	0xb808855f	-3.254914e-05
186	0xb7fb3d09	-2.9949953e-05
187	0xb80d907a	-3.3751574e-05
188	0xb81a2134	-3.6747384e-05
189	0x0001f620	1.80129e-40
190	0x00019b74	1.47602e-40
191	0x0001c198	1.61284e-40
192	0x0001b818	1.57876e-40
193	0x000019e3	9.286e-42
194	0x0001b95c	1.5833e-40
195	0x00019da1	1.48382e-40
196	0x80009049	-5.176e-41
197	0x80013cca	-1.13643e-40
198	0xb746d807	-1.1852017e-05
199	0xb73de61b	-1.13188535e-05
200	0xb7250311	-9.83548e-06
201	0xb74a91f4	-1.2074121e-05
202	0xb7442165	-1.1690286e-05
203	0xb72d1935	-1.03174725e-05
204	0xb7499abd	-1.2016561e-05
205	0xb745660f	-1.1765877e-05
206	0xb730e511	-1.0543751e-05
207	0xb698dfc1	-4.5560014e-06
208	0xb6817f9c	-3.8593553e-06
209	0xb6867dfc	-4.0081777e-06
210	0xb68c8a11	-4.188398e-06
211	0xb672be9d	-3.6171762e-06
212	0xb67f5ec9	-3.8053133e-06
213	0xb6703fdb	-3.5799956e-06
214	0xb6524470	-3.1332274e-06
215	0xb66261a3	-3.3733456e-06
216	0xb61b5b59	-2.3149971e-06
217	0xb60b2ae2	-2.0737575e-06
218	0xb5db5345	-1.6341006e-06
219	0xb62e5089	-2.5974898e-06
220	0xb61ebfcb	-2.3655473e-06
221	0xb5fea721	-1.8973116e-06
222	0xb637949a	-2.7355622e-06
223	0xb62a79c1	-2.5402844e-06
224	0xb60b7499	-2.0780483e-06
225	0xa7ef2b96	-6.638308e-15
226	0xa8907bd3	-1.6040912e-14
227	0xa96a6935	-5.204969e-14
228	0xa9a49ee3	-7.3106255e-14
229	0xa9e5a2f8	-1.01979135e-13
230	0xaa37c227	-1.6321025e-13
231	0xaa7e20ff	-2.257118e-13
232	0xaaab6b64	-3.045022e-13
233	0xaaf2878f	-4.3081898e-13
234	0x9028329e	-3.3171152e-29
235	0x8fce8a56	-2.0366453e-29
236	0x8fc2ed5c	-1.9221304e-29
237	0x90f9265b	-9.827228e-29
238	0x90a2292a	-6.3961157e-29
239	0x908c142e	-5.5251355e-29
240	0x911d17bb	-1.2392429e-28
241	0x90f6cb16	-9.7342795e-29
242	0x90b50353	-7.1397034e-29
243	0xa8e4ce2f	-2.5402503e-14
244	0xa90da886	-3.145446e-14
245	0xa93cb796	-4.190362e-14
246	0xa909d756	-3.0606885e-14
247	0xa9342a4d	-4.000472e-14
248	0xa9764c14	-5.468896e-14
249	0xa9224ed2	-3.6039592e-14
250	0xa95f5641	-4.959076e-14
251	0xa99ff684	-7.103782e-14
252	0xb3e61010	-1.07131314e-07
253	0xb40a0c70	-1.2856776e-07
254	0xb421f82a	-1.5084575e-07
255	0xb40be98e	-1.303035e-07

e_conv5.bias f4 [32]
0	0xbaab24bb	-0.0013057211
1	0x3d13e02c	0.03610246
2	0xbc371808	-0.011175163
3	0x3c472237	0.012154154
4	0x3c9f4ae5	0.019444892
5	0xbbbbd726	-0.005732435
6	0x3cc1f204	0.023674972
7	0x3cc09d80	0.023512602
8	0x3c96d9a8	0.018414333
9	0x3cb8ba5d	0.022549802
10	0x3d348f71	0.04408211
11	0x3c659939	0.014013582
12	0x3c74ea29	0.014948406
13	0x89d3ec14	-5.101841e-33
14	0xbc4128ee	-0.011789544
15	0x3cd100b9	0.02551304
16	0xbac2be28	-0.0014857696
17	0x3cd92c7a	0.026510466
18	0x3c380af7	0.011233083
19	0xb4320770	-1.6580248e-07
20	0x3b2fe407	0.0026838796
21	0xbc14c333	-0.009079742
22	0x3cf99660	0.030467212
23	0xbb2bf8bd	-0.002624079
24	0x3c57974c	0.013158631
25	0x39347283	0.00017208797
26	0x3c31cb51	0.010851697
27	0x3d0e3af8	0.034724206
28	0xbbda1836	-0.006655718
29	0x3ca6612e	0.02031001
30	0x3cbd1cd8	0.023085043
31	0x3c5a3f51	0.01332076

e_conv6.weight f4 [32, 64, 3, 3]
0	0xbbf4cced	-0.007470718
1	0xbbd2551f	-0.0064188386
2	0xbc670b4c	-0.0141018145
3	0x395d7464	0.00021119561
4	0x3bba9ac2	0.005694718
5	0x3b8ef95a	0.004363221
6	0x3b874fd4	0.0041293893
7	0x3c5e6381	0.013573528
8	0x3a7b54af	0.0009587509
9	0xb9d5fdb1	-0.0004081554
10	0xba1cf922	-0.00059880514
11	0xba1ac604	-0.00059041404
12	0xba0720d5	-0.00051547337
13	0xba3d5149	-0.000722189
14	0xba44cb2c	-0.00075070816
15	0xb9e7b173	-0.00044191963
16	0xba361e84	-0.0006947296
17	0xba44b506	-0.0007503781
18	0x000a6413	9.54255e-40
19	0x000b8be0	1.060368e-39
20	0x00085c1b	7.67725e-40
21	0x000cbfec	1.170875e-39
22	0x000dfeb3	1.28523e-39
23	0x000bf7c2	1.099069e-39
24	0x00088095	7.8081e-40
25	0x000ba8f3	1.070798e-39
26	0x000df23a	1.280756e-39
27	0x3c63dbed	0.013907415
28	0x3c5ffae4	0.013670657
29	0x3c0918eb	0.008367757
30	0x3ba3754a	0.004988347
31	0xbbcf95c5	-0.0063349926
32	0xbb22c4be	-0.0024836506
33	0x39c8e48a	0.00038317248
34	0x3a237c7a	0.0006236505
35	0xbbe91d9e	-0.0071141263
36	0x3b05f098	0.0020437595
37	0xba59625a	-0.00082925486
38	0xbb27314c	-0.002551156
39	0x3c4c4759	0.0124681825
40	0x3c8f4e77	0.01749347
41	0x3c47fad1	0.012205795
42	0xb9d9c4a2	-0.00041535968
43	0x3ccfb344	0.025354035
44	0x3cb30b85	0.021856079
45	0xbb9de958	-0.0048190765
46	0xb98bd3ff	-0.00026670095
47	0xbb48f7f2	-0.0030665365
48	0xb88a01db	-6.5806984e-05
49	0xbb1e06f0	-0.0024113022
50	0x3bad9785	0.0052976036
51	0xbbe75a76	-0.0070603443
52	0x3c73788c	0.014860284
53	0x3abfbb30	0.001462793
54	0xbc9189be	-0.017765876
55	0x3a049cad	0.0005058747
56	0xbc217a29	-0.009855785
57	0x3a8a4be4	0.0010551182
58	0xbb05351c	-0.0020325845
59	0x38cb3c1d	9.690991e-05
60	0xbb3ebd7a	-0.0029104636
61	0x3acb95a7	0.0015532271
62	0xbc0f0bdf	-0.008730858
63	0xbc8e429b	-0.017365744
64	0xbc1abc0e	-0.00944425
65	0xbac085b8	-0.0014688289
66	0xbc734b6a	-0.014849523
67	0xbc14b7e8	-0.00907705
68	0xbb333503	-0.002734483
69	0x3a229a7f	0.0006202831
70	0x3cb22e7b	0.02175068
71	0x3c6341a3	0.0138706295
72	0x3b871b20	0.0041231066
73	0x3b57ddf7	0.0032938698
74	0xb91f37b0	-0.00015184167
75	0x3ba957b7	0.005167927
76	0x3ca974a5	0.020685503
77	0x3b319c1f	0.0027101112
78	0x3c139ce9	0.009009578
79	0x3ca5822c	0.020203672
80	0x3c4d35e0	0.012525052
81	0x3c49f007	0.012325293
82	0x3c29cbdd	0.010363546
83	0x3c24ab9b	0.01005068
84	0x3c858622	0.016299311
85	0x3c5159f0	0.01277779
86	0x3ae18027	0.001720433
87	0x3bbba00c	0.005725866
88	0x3bfcecad	0.0077186436
89	0x3aea4f1a	0.0017876357
90	0xbabe4863	-0.0014517423
91	0x3b836e06	0.0040109186
92	0xbb0b117a	-0.0021220134
93	0x3bd18a54	0.006394664
94	0x3c5d3a4d	0.0135026695
95	0x3b8ad52c	0.004236838
96	0x3bafd74a	0.0053662406
97	0x3c277581	0.010220886
98	0x3c02813c	0.007965382
99	0x28322de9	9.89094e-15
100	0x286ed33e	1.325746e-14
101	0x288f9417	1.5940413e-14
102	0x2800d3fa	7.1513924e-15
103	0x283092df	9.80181e-15
104	0x28551c15	1.18299645e-14
105	0x27d72fab	5.972617e-15
106	0x28160432	8.327582e-15
107	0x28367262	1.0127832e-14
108	0xb8b6abe0	-8.7104505e-05
109	0xb8bf2fac	-9.116469e-05
110	0xb8c0fa5f	-9.201909e-05
111	0xb838987a	-4.4011023e-05
112	0xb8412c9c	-4.605633e-05
113	0xb850dd4f	-4.9797174e-05
114	0xb7556472	-1.2719176e-05
115	0xb76bbfbe	-1.4051735e-05
116	0xb793d69d	-1.7623703e-05
117	0xbb01776e	-0.0019755024
118	0xbc6ad9fc	-0.014334198
119	0xba9eb25d	-0.00121076
120	0x3b9c9616	0.004778634
121	0x3b947136	0.0045300974
122	0x3a22f8b0	0.0006216867
123	0x39204935	0.00015286061
124	0x3af89294	0.0018964582
125	0xba60d26d	-0.0008576278
126	0x3651d7e7	3.1269099e-06
127	0x3740c568	1.1490054e-05
128	0x381e168c	3.7691134e-05
129	0xb7ed3de2	-2.8281418e-05
130	0xb7b80454	-2.1936525e-05
131	0x36a37ab7	4.8720644e-06
132	0xb7f211aa	-2.8856874e-05
133	0xb7b3fd46	-2.1456402e-05
134	0x368de46a	4.2287184e-06
135	0x80014983	-1.18207e-40
136	0x80010076	-9.2001e-41
137	0x0000b640	6.5379e-41
138	0x80013fa3	-1.14664e-40
139	0x80013422	-1.10537e-40
140	0x80002254	-1.2315e-41
141	0x80007799	-4.2904e-41
142	0x80014201	-1.15513e-40
143	0x80014fe3	-1.20493e-40
144	0xbb4f8b34	-0.0031668665
145	0x3a80b7c2	0.0009820389
146	0x3b857fbc	0.004074065
147	0x3c1bb338	0.009503178
148	0x3c4a9546	0.012364691
149	0x3c5d1a66	0.013495063
150	0x3bad097f	0.005280673
151	0x3c2ac49f	0.010422855
152	0x3c09d3ff	0.00841236
153	0x3aefccbf	0.0018295272
154	0x3bb70776	0.005585606
155	0x3bbda416	0.005787383
156	0x3c1970b9	0.009365254
157	0x3b7889a5	0.003792384
158	0x3bb7646a	0.005596687
159	0x3beaab92	0.007161566
160	0x3bdc76e3	0.0067280396
161	0xbbba2cf0	-0.0056816265
162	0xbc140ff9	-0.009037011
163	0xb5b02fb4	-1.3126905e-06
164	0x3b71f285	0.0036918235
165	0xbc16a5ac	-0.009194773
166	0xba9fc88c	-0.0012190505
167	0x3b676c90	0.003531251
168	0x3ae31873	0.0017326012
169	0x3a656440	0.0008750595
170	0x3ba1a725	0.0049332553
171	0xba8d599d	-0.0010784153
172	0x3bcaa088	0.0061836876
173	0x3c0780ab	0.008270423
174	0x3bed9507	0.0072504315
175	0x3c44ae2d	0.012004417
176	0x3c8d7c6c	0.017271243
177	0x3baaf24f	0.0052168737
178	0x3c8c32ae	0.01711401
179	0x3b5e87c3	0.0033955432
180	0x3c369231	0.011143253
181	0x3c56299d	0.013071445
182	0x3bf97ebb	0.0076139844
183	0x3c618c5a	0.013766373
184	0x3c8c1685	0.017100582
185	0x3c602a1a	0.013681913
186	0x3bb2c4b1	0.0054555763
187	0x3c1cca36	0.009569695
188	0x3b805fc7	0.0039176675
189	0x3bf18b63	0.0073713525
190	0x3c1efcd4	0.009703834
191	0x3c814576	0.015780192
192	0xbc02036c	-0.007935386
193	0x3c0fad87	0.0087693995
194	0x3c18a955	0.009317716
195	0xbce976c3	-0.028499013
196	0xbb71ecdf	-0.0036914868
197	0xbb734012	-0.0037117046
198	0x3bef5cd1	0.0073047657
199	0x3c1aabca	0.009440372
200	0x3c2a1add	0.010382381
201	0x3c24c0d6	0.010055741
202	0x3bfa4d6c	0.007638624
203	0x3adbaf2e	0.0016760582
204	0x3b861b86	0.0040926365
205	0x3a8b5471	0.0010630024
206	0x3b4c6f34	0.0031194212
207	0x800081b6	-4.6532e-41
208	0x80001949	-9.07e-42
209	0x80000990	-3.43e-42
210	0x80007e91	-4.5403e-41
211	0x80000937	-3.306e-42
212	0x80003a8c	-2.1003e-41
213	0x80004657	-2.5233e-41
214	0x0000bb2c	6.7145e-41
215	0x0000bd75	6.7964e-41
216	0x3c017148	0.0079005435
217	0x3bb8648e	0.0056272214
218	0x3b95abf3	0.004567617
219	0x3c00404f	0.007827832
220	0x3c096f70	0.008388385
221	0x3c049ace	0.008093549
222	0x3a4573c7	0.0007532206
223	0x3abb4163	0.0014286455
224	0x3b23fd2a	0.0025022724
225	0x8f715f88	-1.1900616e-29
226	0x8f7e96b4	-1.2552191e-29
227	0x8f4e2e9f	-1.0165563e-29
228	0x8f8e7bf7	-1.405003e-29
229	0x8f94ad61	-1.466071e-29
230	0x8f6ebf83	-1.177119e-29
231	0x8fb05ed0	-1.739146e-29
232	0x8fba101e	-1.8347224e-29
233	0x8f9bbca8	-1.5356848e-29
234	0x3cabd896	0.0209773
235	0x3c7c799a	0.015409851
236	0x3c2c73e8	0.010525681
237	0x3c8dbce7	0.01730199
238	0x3bc3d91d	0.0059768097
239	0x3b896544	0.00419298
240	0x3c9b906f	0.01898977
241	0x3c16e1f9	0.0092091495
242	0x3c3686dc	0.011140551
243	0xbb286f02	-0.0025700931
244	0x3bcab45b	0.006186051
245	0x3bb3874d	0.0054787756
246	0x3bca121b	0.006166709
247	0x3c4f2355	0.012642701
248	0x3c66c20d	0.014084351
249	0x3b692e52	0.0035580588
250	0x3bc48d50	0.005998291
251	0x3be14d23	0.0068756505
252	0xbb3b82e9	-0.0028611964
253	0x3b8bb142	0.004263074
254	0x3b71e89a	0.0036912323
255	0xbc6af4f8	-0.014340632

e_conv6.bias f4 [32]
0	0xbc1f1615	-0.009709855
1	0x8b9e1f23	-6.0906236e-32
2	0xbbc59450	-0.006029643
3	0x3c2fe21d	0.010735062
4	0xaee8c293	-1.0584702e-10
5	0x3bd1d94c	0.0064040776
6	0x3d1f6db4	0.03892298
7	0x3b813c82	0.0039439807
8	0x3c020973	0.007936823
9	0xb98b48b9	-0.0002656633
10	0x3d07f054	0.03318818
11	0x9ab056b1	-7.293195e-23
12	0x3c2dac15	0.01060011
13	0x3cf1c32b	0.029512009
14	0x3ce018f2	0.027355645
15	0x3bb43cf6	0.005500431
16	0xbcb8a186	-0.022537958
17	0xaeaf6b3c	-7.977127e-11
18	0x3aba0b81	0.0014194102
19	0xbb9694e4	-0.004595386
20	0x3c830f58	0.015998527
21	0x3d32e847	0.04367855
22	0xb63dde38	-2.8292543e-06
23	0x3cf0b729	0.029384213
24	0xbba62dfd	-0.0050714
25	0x3c344b52	0.011004286
26	0x3c868fa0	0.016425908
27	0x3d37f5c2	0.044912107
28	0x3a65358c	0.0008743636
29	0xbbb75436	-0.0055947555
30	0x3ce87381	0.028375389
31	0xbc62f0e1	-0.013851375
